saved_models/first100dataloss=0.model (torch, 206087 bytes, 10 tensors)

weight_ih_l0 f4 [128, 6]
00000000: 8ed3 c3bd a1d2 a2bd 9c45 73bc 9a54 abbd
00000010: 08d3 173d bb20 3cbd de2f 193b 9799 9cbd
00000020: 1f68 45bd 0c08 70bd c9f4 aa3d df2e dd3d
00000030: e590 4cbd 5ab1 c93c daa7 2e3d cf50 61bd
00000040: e0a0 b1bd afa4 74bd 28fc 49bd 5b05 5dbc
00000050: 087c 2b3d 4064 4c3d 6904 d8bc f6f0 64bd
00000060: bdee 6e3d fb76 9abc 5d6f 97bb e4a5 ecbc
00000070: 18ae 013d ce92 0cbd 72c9 dc3c 8298 13bd
00000080: 008c 9cbd d9d1 52bd d9d9 aabd f340 a43b
00000090: e681 b6bc f530 f83c a1c8 2e3d 2353 4fbc
000000a0: 067c cfbd adc6 fcbc 6b30 6d3c 9461 02bd
000000b0: e3c2 6a3c aba2 833d 1643 b7bd 1617 c83c
000000c0: 9de1 af3d 0021 70bd 8d69 f4bb 2473 023d
000000d0: 57f1 433c 3251 013d e906 863c cc41 20bd
000000e0: 700e 77bd 8b8d 843d 1c1d acbc b9d5 8a3d
000000f0: 17e0 b83d 752d 78bc c962 193d 4cf8 b73b
00000100: c9fe 16bc f3e0 1abd 7501 fcbb 79a4 fabc
00000110: 9426 903d b5b4 8bbd 9c60 4a3d ec54 643b
00000120: c822 89bd 24aa 823c 2c1c 903d 97a8 a93d
00000130: ecd7 643d 0d8e 82bc 2bb1 e03c 8935 bebc
00000140: 8d2d a1bd 6378 3bbd 8cab 82bd 2284 87bc
00000150: f9e9 683d d034 70bb 5179 163d 3597 7ebd
00000160: 01b7 313d 740c c63d 0571 a53d 8244 ad3d
00000170: ff72 e8bc 1244 69b9 35a0 853c 5a2c e13c
00000180: 7b0f 71bc e903 87bd 3d71 5abd f898 9dbd
00000190: bca5 3b3d 493e d9bc 2028 a2bd 75ee 453d
000001a0: 2c5b 4fbd 6dc2 2cbd 38ee 813d 06eb cdbd
000001b0: 1ca7 51bc 7ec8 603d e29a 87bd 82b7 dcbc
000001c0: 56d2 52bd 13f6 08bd 0364 f43c eb0a 99bd
000001d0: 6dbd 803d b067 22bd 321d c4bd 6d25 d2bd
000001e0: f572 26bc c926 c6bc 6d37 3fba 7a3e 7a3d
000001f0: fd90 afbd 2d2b 8bbd 8a74 bfbd 0722 a7bc
00000200: 0b7e 7a3c 5717 91bb 7bb4 e4bd b06f 643d
00000210: e249 34bd 647f 9ebd 6fcf a93d a290 0e3d
00000220: d6eb b0bb c57c b6bb 2a18 b9bc 078d 6f3d
00000230: 786d 80bd a4a0 43bb f75c e93b c1bd ee3c
00000240: b7ee 7b3d 53bd ccbb f666 4f3d d763 acbc
00000250: 3cd5 06bd 65a4 5bbd f782 033c c45b 75bd
00000260: 95cb 87bb 3c0e 393d 9ea7 8f3d 7109 993d
00000270: 7bc9 68bd 2eec dabc 4f5c 853d aa9d 53bb
00000280: 900e c8bd 6a98 1ebd 1e43 7cbd 98f3 75bd
00000290: c837 e0bc f28b 0fbd da97 323d a508 853d
000002a0: eeca 903d 59b9 5d3d 1220 15bc 6eee 7abb
000002b0: 0385 8c3c 0dc5 97bd 15cd 4cbd 3b6d ebbc
000002c0: 384c ae3d ba3d b13c df33 a8bd a181 923d
000002d0: 5e89 8c3d b4b4 823d 6302 353c 029f 833c
000002e0: 7af4 8abc 9792 d53c bbdd 91bc ea87 5c3d
000002f0: 195b 9a3d 5f51 9cbd 44d2 8dbd c0e3 9ebd
00000300: b878 183c 2aec a8bd fc5b 82bd 8882 77bd
00000310: 73a2 833d cc4d a9bd f95e b9bc 03ed 6d3c
00000320: 3c30 ecba 9899 803d e855 713d 18c6 c63b
00000330: df36 473d c3a7 423d cde5 2b3d ce55 35bd
00000340: c063 8b3d b726 af3d 7cfb 45bd f4bb dbbc
00000350: 7b49 b23d 7ac5 6f3d c3e4 e53d f42a afbc
00000360: 2eb1 843d e682 9e3d afaa 2ebc 0de9 c83c
00000370: 402e 7a3d c1e5 933d 5123 7e3d 4b7b a63d
00000380: c2d6 54bd d600 0c3d 4bce 053b 6486 3fbd
00000390: 4617 38bc 1e81 613d 1423 0c3d 9573 933c
000003a0: e5da 24bd 487b 94bd a1a1 c33b 920e 3bbd
000003b0: 6aff bbbc d245 963d 5c1b 6e3c eca4 7c3d
000003c0: 6792 63bc f00b 1abc 3014 b13c e7d7 5ebd
000003d0: 3325 05bc 2af9 6ebd 1287 b73c 3f5e 4a3d
000003e0: a6c0 77bd cfd7 97bd 5eee 083d 131e ed3c
000003f0: 1f79 a33c 8530 35bc de43 c7bb b7e6 e5bc
-0.09561835 -0.079503305 -0.014848139 -0.08365746 0.03706649 -0.04592965 0.0023374478 -0.076464824
-0.048195 -0.058601424 0.0834747 0.107999556 -0.04994287 0.0246207 0.042640544 -0.055008706
-0.086732626 -0.059727367 -0.04931274 -0.013490046 0.041866332 0.049900293 -0.02636929 -0.05589386
0.058333147 -0.018855562 -0.00462143 -0.028887697 0.03166017 -0.03431969 0.026951525 -0.036034115
-0.076438904 -0.051469658 -0.083423324 0.0050126254 -0.022278737 0.030296782 0.042671803 -0.012654099
-0.101310775 -0.030856455 0.014476876 -0.03183134 0.014328691 0.06427511 -0.089483425 0.02442507
0.08587954 -0.05862522 -0.0074588717 0.031848088 0.011959395 0.031571575 0.016360717 -0.03912525
-0.060316503 0.0647231 -0.021009974 0.067790456 0.09027117 -0.015147557 0.037447724 0.005614316
-0.009216019 -0.037812185 -0.0076906034 -0.030596005 0.07038608 -0.068215765 0.04940854 0.0034840656
-0.06696087 0.01595027 0.07036623 0.08284109 0.05586998 -0.015936876 0.02742823 -0.023218887
-0.07870016 -0.045769107 -0.06380376 -0.016542498 0.05686376 -0.0036652572 0.03673679 -0.06215592
0.043387417 0.09670344 0.080781974 0.084603325 -0.028375147 -0.0002224597 0.016311744 0.027486969
-0.0147131635 -0.06592543 -0.05333065 -0.07695192 0.045812353 -0.026518958 -0.079178095 0.048323113
-0.050624058 -0.042177606 0.06344265 -0.10054593 -0.01279619 0.054878704 -0.066213384 -0.026942972
-0.051470123 -0.0334378 0.029832846 -0.074727856 0.0628613 -0.039649665 -0.09575881 -0.10261045
-0.010159244 -0.024188416 -0.0007294331 0.06109474 -0.08572576 -0.067953445 -0.093484 -0.020401968
0.01528884 -0.004427831 -0.111672364 0.055770576 -0.044015773 -0.077391416 0.08291518 0.0348059
-0.0053992076 -0.005569073 -0.02259453 0.058484104 -0.062708795 -0.0029850388 0.007121678 0.029143216
0.061506953 -0.006248155 0.0506353 -0.021043701 -0.0329182 -0.053623576 0.00802683 -0.059901968
-0.004144142 0.04517959 0.07014392 0.07472504 -0.05683277 -0.026723947 0.06511747 -0.003229002
-0.097684026 -0.038719572 -0.061587445 -0.060046762 -0.027370349 -0.03504557 0.04360185 0.064957894
0.07069956 0.05413184 -0.009101884 -0.0038289088 0.017153269 -0.07410631 -0.05000027 -0.028738609
0.08510631 0.021635879 -0.082130186 0.07153631 0.06862138 0.06382123 0.011047932 0.016067032
-0.016962279 0.026070876 -0.017805925 0.053840555 0.07536907 -0.07632708 -0.069248706 -0.077582836
0.009306125 -0.0824817 -0.06365201 -0.06042722 0.06427469 -0.08266792 -0.022628294 0.01452184
-0.0018019746 0.06279296 0.058919817 0.006066095 0.048636314 0.04752327 0.041967202 -0.044271283
0.06806135 0.08552306 -0.048335537 -0.026823021 0.087054215 0.058537938 0.112252735 -0.021382786
0.06479107 0.07739811 -0.010660811 0.02452519 0.061079264 0.072215565 0.0620454 0.08128985
-0.05196262 0.034180485 0.002041715 -0.046759024 -0.011236018 0.055054776 0.03421314 0.01799945
-0.040247817 -0.072500765 0.0059701954 -0.045668192 -0.02294894 0.07337536 0.01453289 0.06168072
-0.0138898855 -0.00940226 0.021616071 -0.05440512 -0.008126545 -0.05834309 0.022403274 0.049406286
-0.06048646 -0.07414209 0.03343045 0.028945005 0.019955216 -0.011058931 -0.0060810884 -0.028064115

weight_hh_l0 f4 [128, 128]
00000000: 7bb8 68bd 690b 32bd 0fb8 9bbd 6b15 abbd
00000010: 0a10 5fbd be7f b13d 8566 fc3c 480f ac3c
00000020: 9f88 a3bc 3cd5 0abd 230c 873d b8c1 803d
00000030: 2116 fb3c ea27 923d bf06 b5bb 86d2 9ebd
00000040: 4700 90bd 1558 933c 1ed3 70bd 4b5d 7f3d
00000050: 3432 ff3c faaf 22bd 5560 6d3d c0cd 323d
00000060: 454a 85bd f34c 11bd 8a73 f13c b3d7 b1bd
00000070: 2000 bfbc e851 973c 0c4d 9fbd 41eb 6ebb
00000080: 9f6d e8bc acda 17bc ee70 40bc e158 663d
00000090: 55d0 4fbd 583a 23bd d7d9 4ebd 9472 42bc
000000a0: 1f05 233d e21c 503d aaee 833d b382 823c
000000b0: 8e81 033d f35c 0d3d e360 853d e7b1 063d
000000c0: f966 79bd 2b22 b8bb c4aa 05bd 1a08 febc
000000d0: 61eb 483d 9217 9e3d 5425 b5bc e721 953d
000000e0: f971 20bd 29b8 cbbc 0d78 b8bc 0dde c2bc
000000f0: 0d45 a0bc ed4d 853d bf01 a23d 6fd9 37bd
00000100: fb16 95bd 574f 81ba 120e 8ebd 7f88 973d
00000110: 8980 b33c 0cd5 90bd cd3f 743d c61a 99bc
00000120: 8eae 883d 9fda 7c3d fdce 083d 841c 99bd
00000130: 9430 53bd a20e 653d 82a4 68bd eccb 533d
00000140: b425 b53a bff8 a13d e594 253d 0a10 a7bd
00000150: 997c f6bc 4a78 82bd ebf9 d9bc 65ee a33d
00000160: b78a ad3d 0930 94bd 9505 adbd e618 6f3d
00000170: 25cc 12bd 3e39 3cbd c669 8dbd 6862 633d
00000180: 700a 6abc da42 813d fe70 17bd f325 063d
00000190: deef c9bc bdb5 523d 3cb5 503c 465d 173d
000001a0: 5542 4cbd 7dd1 1dbb 157f 7dbd c4a6 0b3d
000001b0: 8292 b3bd 0377 3fbd 12f9 533d 5b00 743d
000001c0: f2e2 c6bc c7f0 733c 00f3 e13d c8d2 0d3d
000001d0: 27b8 913d 7d58 abbd 3a23 f1bc 6671 9abd
000001e0: 1be2 543d 52ec 203a fe69 fc3b bd36 d0bb
000001f0: 0e5a bf3c 74f1 ec3c 8e49 ad3c 136e 47bc
00000200: 4e6b 673a 1e36 143d c939 623d 2141 5abc
00000210: c768 8e3d e1b0 423d 5111 9b3d b8f9 8b3d
00000220: 3709 0cbd 705b a73d 1fc5 42bd 4027 083c
00000230: 58d1 4b3c 4a64 8bbc b5ae 693d 1207 bd3d
00000240: 549f 11bd 7c92 b1bd 389c 14bd f1ef b2bd
00000250: 7255 673d 8c0e 573d e339 373d 5c14 87bd
00000260: 4ab2 93bd d85f 593d 7854 98bd 96e9 613d
00000270: 2ca2 19bc 0066 4abd 9180 973d 5cad 4e3d
00000280: 0b10 64bd 8af3 afbd 6b81 8dbd dd2e e03c
00000290: 7758 843d f74d a23c ad53 273c f041 8e3d
000002a0: d696 8fbd f5b3 db3b ce79 98bd 700e 9a3c
000002b0: b287 40bc a592 9e3d bcfe 1dbd 415e 26bc
000002c0: d36f 353b 267e 6abc 22ad 8bbd 9d7e 87bb
000002d0: a279 433d e798 04bd e3f7 133d 139b 763d
000002e0: ea30 363c 4226 4d3d db2c f13a 14e9 61bd
000002f0: 5db0 9dbc 965f 443d e50a 9f3c 004d 97bd
00000300: cfdd b13d 8d8d b5bd 39b8 103c bce5 a0bd
00000310: 3b73 a73d 562a 12bd 263e 3c3d a007 133d
00000320: ede3 adbd 9e7d 57bd 77bf b5bd 6129 5a3d
00000330: 7cb8 82bd fba4 303d f929 15bd 239c 07bd
00000340: f82e 84bc 47dc 203d d124 04bd aa33 a13d
00000350: 2320 90bd 8442 dabc 861a 4db9 e669 9abd
00000360: 26d1 cfbd 219d dd3b 4101 1cbc 3d90 98bd
00000370: 17bd 3dbc ed55 903d b2c2 9ebd 8cd7 c9bc
00000380: d1e3 323d a39b 70bd 049a ea3c 4512 de3c
00000390: ca9d 8c3d 0c1f 90bd 71e3 d2bb 9b7f 2a3d
000003a0: 96a8 86bc 8cd0 3ebc b70b 83bc dd9c 393d
000003b0: 5aba 69bd e8fa 423d d76d a5bc 1ef3 3a3d
000003c0: decd 8cbd eaad 93bd e847 d2bd 5ba4 8a3c
000003d0: 95d2 943c 5158 8abd ec28 08bd 9a1a 9e3d
000003e0: f3d4 7f3d 70b8 85bc 7bb9 9ebd de47 d23c
000003f0: f3dd afbc 8692 b23d 11c8 443c 8bfa 9f3c
-0.05681656 -0.043467913 -0.07603466 -0.083536945 -0.054458655 0.08666943 0.030810604 0.02100338
-0.019962607 -0.033894762 0.06594112 0.06286949 0.0306502 0.07136519 -0.005524486 -0.07754998
-0.07031303 0.017986337 -0.058795087 0.06234483 0.031151868 -0.039718606 0.057953198 0.04365325
-0.065083064 -0.035473775 0.029474039 -0.086837195 -0.02331549 0.018471673 -0.077783674 -0.003645614
-0.028372584 -0.009268444 -0.011745675 0.056237105 -0.05073579 -0.039850563 -0.050500717 -0.011868138
0.039799806 0.050808795 0.06442006 0.015931463 0.032105975 0.03451247 0.0651262 0.032884505
-0.060889218 -0.0056193075 -0.032633558 -0.031009723 0.0490526 0.077193394 -0.022112526 0.07281857
-0.039171193 -0.024868088 -0.022518182 -0.023787523 -0.019564176 0.06509004 0.07910489 -0.044885095
-0.07279774 -0.0009865564 -0.069362774 0.073990814 0.021911876 -0.070718855 0.059631158 -0.018689524
0.06673919 0.06173193 0.033400524 -0.07476142 -0.05156 0.055922158 -0.056797512 0.051708147
0.001382044 0.07908773 0.0404252 -0.08157356 -0.03008871 -0.063705996 -0.026608428 0.080044545
0.084737234 -0.072357245 -0.0844833 0.058373354 -0.03583922 -0.045953028 -0.0690494 0.05551377
-0.014284715 0.06311579 -0.036972992 0.032751035 -0.02465051 0.05144285 0.012738522 0.036954187
-0.049867947 -0.0024081164 -0.061888773 0.034094587 -0.087681785 -0.046744358 0.051751204 0.05957065
-0.024278138 0.014888949 0.11032677 0.034624845 0.071152024 -0.08366487 -0.029435743 -0.0754116
0.051973443 0.000613873 0.007703065 -0.0063541816 0.023358371 0.028923728 0.021153238 -0.01217224
0.00088279403 0.036184423 0.05523089 -0.013321192 0.069535784 0.047531966 0.07571662 0.068347394
-0.034188475 0.08171737 -0.04755127 0.008310139 0.012440048 -0.017015595 0.05705138 0.09229864
-0.035552338 -0.08670518 -0.036281794 -0.087371714 0.05647797 0.052504107 0.04473294 -0.0659568
-0.0721174 0.05306992 -0.07437986 0.055154406 -0.009377044 -0.04941368 0.07397569 0.050458297
-0.055679362 -0.08591373 -0.0690945 0.027366096 0.06462186 0.019812567 0.010212821 0.0694617
-0.070111915 0.006704802 -0.074451074 0.018805712 -0.011751102 0.07742814 -0.03857301 -0.010154308
0.002768506 -0.014312303 -0.06820132 -0.0041349665 0.04772342 -0.03237238 0.036125075 0.060206484
0.01112006 0.050085314 0.0018400209 -0.05515392 -0.019249136 0.04794272 0.019414375 -0.073877335
0.08684885 -0.08864889 0.008832985 -0.07856318 0.08176275 -0.035684906 0.045957707 0.035895944
-0.08490739 -0.052610032 -0.0887441 0.05326212 -0.06382844 0.043126088 -0.03641698 -0.033107888
-0.016135678 0.039272573 -0.032261673 0.07871182 -0.070373796 -0.026643045 -0.00019560204 -0.0753973
-0.10147314 0.006763116 -0.009521783 -0.07449386 -0.011580727 0.07047639 -0.07751979 -0.024638914
0.043674294 -0.058742177 0.028637893 0.027108321 0.068660334 -0.07037172 -0.0064358045 0.0416256
-0.01643781 -0.011646401 -0.015996797 0.045315612 -0.057062484 0.047602564 -0.020193977 0.04564201
-0.068752035 -0.07210906 -0.10267621 0.016924074 0.01816682 -0.06755126 -0.03324215 0.077199176
0.062458944 -0.016323298 -0.07750221 0.025669035 -0.021468138 0.087193534 0.01201059 0.019528648

bias_ih_l0 f4 [128]
00000000: 548c 53bc 948b 78bc 7d7e 35bd cfbc 4abc
00000010: 1e7a 08bd 9443 a4bd 8811 01bd 77e2 963d
00000020: 7cf9 753d 9258 aebc 9737 b13d 1fe2 8abd
00000030: 623b cebc 567d 893d cbbe 373d 8d5d 7c3d
00000040: c66d 143c 768d 223d 16ed 8fbd 8a0f 45bd
00000050: 78ea e6ba 9d22 88bc 20a7 0fbd d187 8abb
00000060: daa7 693d 90a5 7e3d fa96 a73d f4c4 cc3c
00000070: 53ed 3a3d 5dad 893d d414 413c b3b9 54bd
00000080: b706 8bbd cef9 8fbc 56d2 933d d03d 183d
00000090: 244e c9bc 1b35 edbc a00e 83bd 3d97 0f3c
000000a0: 0464 1d3d 40bb f83c 8978 44bd 1643 8e3c
000000b0: 2a37 22bd bf65 f03b 91c1 aabc 7d40 a1bd
000000c0: e9ed 0a3d b1be 87bd 428f 31bd 95fd cebc
000000d0: 2020 c7bc f8a8 02bd 4e17 74bd be3a 4e3d
000000e0: 845c 11bd d916 8f3d d3e4 003d eb84 65bd
000000f0: c89c 74bc b9dd 853d 2a59 49bd f643 713d
00000100: 41e1 7c3c b5ed 55bd 4d20 14bd b621 fd3c
00000110: 42a1 993b 8cbe 9fbd 88b6 99bd a9ba e93c
00000120: ec7e e2ba 4f82 a03d e091 81bd 437d 303d
00000130: 0df5 11bd 0b74 893d 414f ffbc 1441 6c3d
00000140: d79e 0c3c 68b7 a2bd 2ab4 9c3d e8a5 233c
00000150: 1328 6bbb 2e5c 8cbd fcb5 443c 5ad2 9a3c
00000160: a753 db3c ca01 a1bc f250 503d 676d 573d
00000170: 8d9b a33d b152 823d 983c b4bb afbe 2bbd
00000180: 9ed7 aa3d bf17 a2bd 3106 913d d1a0 9c3d
00000190: 2a43 8cbd 33e3 a3bd 6a7a 82bd 866c f43c
000001a0: ae77 7bbd dd7f b53c a948 c5bb 2e7c 80bd
000001b0: 6820 9b3d 4309 643d 7342 8b3d 2ba0 a3bd
000001c0: 489b 483c af94 c83b c34d b3bc 8c84 b23d
000001d0: 7b5d 8f3d 72cf f93c 4643 47bc 4b04 b7b9
000001e0: 92c8 2abd 4538 8cbd e06d 98bc ddb0 fabc
000001f0: 1ccb 4f3d 939e 3d3c 6459 9ebd 2077 85bc
-0.012911875 -0.015169997 -0.04431008 -0.012374117 -0.033319585 -0.08020702 -0.03151086 0.073674135
0.06005238 -0.021282468 0.08653181 -0.067814104 -0.0251748 0.06713359 0.04485969 0.061612654
0.009059375 0.03968569 -0.070276424 -0.048110522 -0.0017617485 -0.016618067 -0.035071492 -0.0042276164
0.05704484 0.06216961 0.08183093 0.024996258 0.045636486 0.067225195 0.011784751 -0.05193491
-0.0678839 -0.01757517 0.07217853 0.037168324 -0.024573393 -0.028955987 -0.06399274 0.008764085
0.03842546 0.030362725 -0.047966514 0.017365973 -0.03960339 0.007336348 -0.020844253 -0.07873628
0.033918295 -0.066281684 -0.043349512 -0.025267402 -0.02430731 -0.031899422 -0.059592538 0.05034899
-0.03548862 0.0698678 0.031468224 -0.056034964 -0.014929958 0.06536431 -0.0491573 0.058902703
0.015434564 -0.05222865 -0.036163617 0.030899864 0.004688413 -0.07800016 -0.07505518 0.02853139
-0.0017280257 0.078373544 -0.063266516 0.04308821 -0.03563409 0.067115866 -0.03116572 0.05767925
0.008582792 -0.07945138 0.07651551 0.009988286 -0.003588204 -0.068535194 0.012006279 0.018899132
0.026773287 -0.019654173 0.050858445 0.05259457 0.07988653 0.063634284 -0.0055003874 -0.041929897
0.08341907 -0.079146855 0.07081259 0.07647861 -0.06848748 -0.08002319 -0.06371005 0.029836904
-0.061393432 0.022155697 -0.0060206247 -0.062736854 0.075745404 0.055672895 0.067997836 -0.07989534
0.012244053 0.00612124 -0.021887666 0.087166876 0.07000252 0.030494425 -0.012162035 -0.00034907678
-0.041695185 -0.0684667 -0.01860708 -0.030601913 0.05073081 0.011573452 -0.07731894 -0.016292155

bias_hh_l0 f4 [128]
00000000: ddc6 ae3c 04a9 6bbc f06f d43c 0642 423d
00000010: 6ba2 b33d 4667 453d 0247 2e3d 7666 81bc
00000020: 56a9 99bd 034e 173d 3c76 66bd 3512 cbbc
00000030: d03d 86bd 4e1b 4a3d 33db 413d 2436 5a3d
00000040: 4bed a9bc 2fd6 07bc c195 973d 8ec5 3e3d
00000050: 8636 79bc 6fb6 ed3c 5a3c 893d 1df6 c13b
00000060: f332 8a3d 7f2c 8dbd 7766 58bb 3cff 8abd
00000070: ddbe 843d e711 a6bd ee0e 963c b84b a33d
00000080: 9e85 6b3d 689f 82bc f114 9abc 89a4 71bc
00000090: e7f7 2e3c 2bbb 9fbd 5218 aa3c b0e0 85bd
000000a0: ba83 ac3c 4ac4 6e3d e9b7 46bd 069a 83bd
000000b0: 7117 9fbc 46fd 40bd f7d4 b13c 4245 a93d
000000c0: ecc1 3fbc 9578 2a3d 1338 1b3d 3c59 15bd
000000d0: 1c4c 123d 9a03 2bbd dd4b 4abd dd0c 3dbd
000000e0: f2e1 753d ef8b 163d e2f8 59bd 4609 debc
000000f0: 56c2 a8bd 4104 853d d86c 34bd 9403 793d
00000100: 7cb8 473d a757 f3bc b0cd 8bbd b673 5f3c
00000110: 7af0 653d 3716 a1bd 5081 433b 8621 103d
00000120: 3090 8abd 88f9 e8bb 4b61 2c3d 527b 3dbd
00000130: 2dcc e1bb 7670 d6bc 883b 453d 9b0f 9bbd
00000140: 1b04 ca3c 39a3 04bc dc20 9a3d 6cb8 a63d
00000150: cda0 34bc 52be 923c e87d 54bd 22ad 6bbd
00000160: 2b14 963d 465d a03c ae61 0e3d 3fb0 9fbd
00000170: 4f05 8d3d 3da4 9bbd 7cfe 31bb 63c1 4e3d
00000180: 5ea8 70bd 7a1c 3e3d 14ca 613d d7a9 b3bd
00000190: 8f88 2ebc 607a 4dbc 927c 33bd 2ba3 b6bd
000001a0: 21c3 9ebd 3918 25bb 699d 39bc 87e6 523d
000001b0: cc96 43bd ff3f 043d 1f3e 923b dd82 9c3c
000001c0: 0bb0 553d 8c85 713d 2d8a 05bc 3589 abbd
000001d0: 453c 86bd 6967 a13d 676d 4cbc 8dd4 d7bc
000001e0: f5cb af3d 03c1 1abd f84d 343d 92b7 793d
000001f0: b42b 58bc 3bc6 193d b72a cf3c 533b 8a3d
0.02133506 -0.014383558 0.025932282 0.047426246 0.08771213 0.048194192 0.042548187 -0.015795927
-0.075030014 0.036939632 -0.0562651 -0.024788955 -0.065547585 0.049342446 0.047328185 0.05327429
-0.020743033 -0.008290811 0.0740161 0.04657512 -0.015210753 0.029017655 0.06700964 0.0059192316
0.06747999 -0.068932526 -0.0033020058 -0.06786963 0.06481717 -0.08108883 0.018317666 0.079734266
0.057500474 -0.015945151 -0.018808814 -0.014748701 0.010679222 -0.07799371 0.02076355 -0.06536996
0.021058906 0.058292665 -0.048515234 -0.06425862 -0.019420357 -0.04711654 0.021707995 0.08265163
-0.011703949 0.041618902 0.037895273 -0.036462054 0.035717115 -0.04175148 -0.049388755 -0.046154846
0.06002993 0.036754545 -0.05321587 -0.027104031 -0.08240192 0.06494952 -0.044049114 0.060794428
0.048759922 -0.029704882 -0.06826341 0.0136384275 0.05613754 -0.07865565 0.0029831715 0.03518822
-0.06765783 -0.0071098246 0.042084973 -0.046260186 -0.0068907947 -0.026176672 0.048152477 -0.07571336
0.02466016 -0.008095556 0.07525799 0.081406444 -0.011024666 0.017913017 -0.051877886 -0.05753816
0.073280655 0.019575726 0.034761123 -0.07797288 0.06885778 -0.07599685 -0.002715974 0.050477397
-0.058754317 0.046413876 0.055124357 -0.08772629 -0.010652675 -0.0125413835 -0.04381997 -0.089178406
-0.07752062 -0.002519144 -0.011329033 0.05148938 -0.047751233 0.032287594 0.004462972 0.01910537
0.05216984 0.05896525 -0.008150619 -0.083757795 -0.06554464 0.07881052 -0.012477255 -0.02634647
0.085838236 -0.037781727 0.04401967 0.060966082 -0.013194013 0.037542563 0.025288923 0.067495964

weight_ih_l1 f4 [128, 128]
00000000: 8dd9 04bd 9ff5 8c3d 5976 6fba 2811 96bd
00000010: e9a0 79bd 1d6d 94bb 6431 71bc fe66 b8bd
00000020: 1114 303d 52dd dabc 69c2 1fbd 599d 8cbd
00000030: b862 8ebd 625e fdbc 0043 dbbc 93c2 67bc
00000040: 953a dc3c 770d d13d 503c f03b 296c 413d
00000050: 21e4 43bd 097a cbbd ebf5 d43c 2db1 b1bd
00000060: 7d3d f3bc 3b1c 94bd fafa 873d b772 023b
00000070: d8d0 27bd 8137 96bd a859 77bd dd90 7fbd
00000080: 79cf 2f3c 2190 0bbd 0859 0fbd 66a0 473b
00000090: 7eee a5bd 4c23 413d b7d7 e1bc 5b8d c8bd
000000a0: 3cdd d4bb 512f 813d b20e 463d 4fb7 bfbd
000000b0: 9663 8f3d 083e 9bbd d0a2 12bc 7077 923d
000000c0: 2a13 ac3c 0806 9e3d 24ef f53c fe43 b33d
000000d0: 62a9 78bd 417c 343d b9e7 adbd cf2d d0bc
000000e0: fc3e 263d 95d0 c73c e607 0d3c 6df5 deba
000000f0: e86a 1ebd f25e 96bd b6b5 92bb 4061 bfbc
00000100: 2689 24bc 6cb9 d23c 0ad6 5fbd a421 b63d
00000110: 5cb3 9bbd c8a2 053d a41e 63bd 79f1 7abd
00000120: 3291 9b3d 9bf2 c33c 32b7 0c3b 79fa 99bd
00000130: a478 5d3c 72b7 633d bceb 58bd 8c6d c63b
00000140: a0c6 3cbc 3c84 7e3b 2df4 a03d c8bd 05bd
00000150: b4cd 743d c088 caba 3057 1abd f9ef a03c
00000160: 7727 b83d b6b3 bc3b c5c9 ed3b 910f 6e3d
00000170: 2a0b b7bd 18e4 72bd 7398 463c 6f51 a23d
00000180: 743c 8cbd f017 e83c adaa 36bd 8666 31bc
00000190: 47f1 0b3c 7f7d 8f3d 46fd 45bd 22a3 473d
000001a0: 543d 82bd 2584 283d ce14 bd3d d296 453d
000001b0: a125 923d 5c82 6c3d 311d 2cbd f08f 243d
000001c0: 107f c2bc bce4 3dbc 08dd 4f3d 5513 bdbb
000001d0: d5ba 3c3c 8248 41bd cb4a c43c 2f91 0c3c
000001e0: cf78 063e 5409 c93c e6cd cfbc 5ff3 abbc
000001f0: 4c1c 873c eb6d 9dbd e6a6 94bb bb08 ae3b
00000200: 5245 14bc e779 84bc 93dc 4abd 8810 533d
00000210: 12b5 0fbd 698d 893d 11ca d7bc 1da5 483d
00000220: b194 35bc 919b 453d ff7b 4bbd 9368 3dbc
00000230: 5992 d73b d216 84bd 76ee b63d ed96 44bd
00000240: e003 84bd 7ede 58bd 2ced bcbb 5270 8e3d
00000250: d271 343d b5ca a03d bd70 33bd f1e8 a23d
00000260: a623 61bb 3d62 033d a742 f83b 8e7b 913d
00000270: 3726 fabc afa2 c33d 5905 573d 63e1 8dbd
00000280: 29f1 e43b a4e7 6c3d 276e 4a3d f412 5a3c
00000290: 760c a03d 9bf6 23bc ac61 943c c34a 18bd
000002a0: aa01 963c 2502 f3bc 03f8 4c3d 7272 543c
000002b0: dd00 af3d c29a acbc 02bd 6b3d 98bc a93d
000002c0: 0699 37bd ca1a 243d 2632 b43d 03b5 7ebd
000002d0: c6a9 a4bd d2a1 86bc 122a bb3d bb66 533c
000002e0: 95b4 5cbd d011 ee3c bd2f 70bd 593f 053d
000002f0: 3081 063d 10df 043d df9d 003d 9890 7ebc
00000300: 7930 39bd 8588 cd3c 2389 77bc 065f 1f3c
00000310: 1962 893d 0fa8 88bd b9f5 9abd ef59 8ebd
00000320: 9d0a d43b 02a2 553c 2304 433c 7b0f f7bc
00000330: a6de 8cbd 76aa 93bb c1e4 27bd c0e1 fa3c
00000340: b001 263c 4ac3 cfbb 7692 8c3d b144 28bd
00000350: fff9 ad3d 1180 80bc bbf9 b0bc fa0e 8e3c
00000360: 7864 de3c cbf0 fabc bd45 293d d4e4 75bb
00000370: 0701 773d af75 6e3d 0d04 013c 194d bb3d
00000380: ce1e 833d 5e8f 673d f71c 723d a196 803d
00000390: 33f8 8b3d 3114 a83d d2a1 adbd d9d2 853c
000003a0: 32ba 98bd 6be4 203d 9f3c a3bd 199f cf3c
000003b0: b471 333d 0f48 913d 41f7 0abd beaa 92bd
000003c0: 8140 e2bb 9f70 7a3d d98d 2e3d 4c2a 0e3d
000003d0: 2401 b33d 4d91 b7bd 4dc0 6a3d 48ab b03c
000003e0: 8986 123d 6690 883d a698 983d 8910 a13d
000003f0: 569e 423c f518 3ebd b918 7c3c e7cf b3bc
-0.032434035 0.06882786 -0.00091347616 -0.07327491 -0.06094447 -0.004529609 -0.014721248 -0.09004019
0.042987887 -0.026716862 -0.039003763 -0.06865949 -0.06952423 -0.030928794 -0.026765347 -0.014145511
0.026883403 0.10207646 0.0073314086 0.04722229 -0.047824983 -0.09935386 0.02599617 -0.08676372
-0.029692406 -0.07231947 0.06639667 0.00199048 -0.040970653 -0.07334805 -0.060388237 -0.06239401
0.010730618 -0.034073 -0.034997016 0.0030460595 -0.081021294 0.047152802 -0.027568681 -0.097925864
-0.0064960998 0.06307853 0.04835386 -0.09361135 0.070014164 -0.07580191 -0.00894995 0.07151687
0.021005232 0.07715994 0.030021258 0.08753203 -0.06070841 0.04406381 -0.08491463 -0.025412468
0.04058741 0.024391452 0.00860784 -0.0017010398 -0.038676172 -0.07342328 -0.004477228 -0.023361802
-0.010042464 0.025723182 -0.054647483 0.08893135 -0.076025695 0.032625943 -0.055449143 -0.061265443
0.07596053 0.023919394 0.0021471498 -0.07518477 0.0135175325 0.05559487 -0.05295919 0.0060555395
-0.011521965 0.0038836142 0.07859073 -0.032651693 0.059766486 -0.0015452132 -0.037680805 0.019645678
0.08991902 0.005758728 0.007256719 0.058120314 -0.08937676 -0.05929956 0.012121308 0.079256885
-0.06847468 0.028331727 -0.044596363 -0.010827666 0.008541412 0.07006358 -0.048337243 0.04873956
-0.06359354 0.041141648 0.09232484 0.048239537 0.071360834 0.057741508 -0.042020027 0.040176332
-0.023742229 -0.011590179 0.0507479 -0.005770127 0.011519154 -0.04718829 0.023961445 0.008579536
0.13132022 0.02454058 -0.025366735 -0.020990072 0.016492985 -0.07686981 -0.0045364974 0.0053110993
-0.00904973 -0.016171409 -0.049526762 0.051529437 -0.03508479 0.06716425 -0.02634147 0.04898559
-0.011082814 0.048244063 -0.0496788 -0.011560577 0.0065787253 -0.06449665 0.089322016 -0.047995497
-0.064460516 -0.05294656 -0.005765578 0.06955017 0.04405386 0.07851163 -0.043808687 0.07954586
-0.0034353524 0.03207611 0.007576305 0.07103644 -0.0305358 0.09552514 0.052495334 -0.06927755
0.0069867563 0.057838097 0.049421456 0.013310183 0.07814877 -0.010007526 0.01811298 -0.037180673
0.01831134 -0.029664109 0.05004121 0.012966739 0.085450865 -0.021069888 0.0575533 0.082879245
-0.04482367 0.04006461 0.087986276 -0.062184345 -0.08040194 -0.016434584 0.09138884 0.012902911
-0.053883154 0.029061228 -0.058639277 0.032531116 0.032838047 0.03243929 0.031400558 -0.0155374035
-0.045212243 0.025089512 -0.01510838 0.009727245 0.06708164 -0.0667268 -0.07566399 -0.06950747
0.0064709918 0.013039114 0.011902842 -0.030158749 -0.06878404 -0.0045064045 -0.04098964 0.030625224
0.010132238 -0.006340419 0.06863873 -0.041081134 0.084949486 -0.015686067 -0.021603456 0.017341126
0.027147517 -0.030632397 0.041326273 -0.0037520425 0.060303714 0.0582177 0.007874501 0.091455646
0.0640236 0.05653321 0.059109654 0.0627873 0.068344496 0.08206976 -0.084781304 0.016335892
-0.07457389 0.039280336 -0.07970547 0.025344418 0.043809608 0.07093822 -0.033927206 -0.07161473
-0.006904662 0.06114256 0.042615745 0.034708306 0.08740452 -0.08963261 0.0573123 0.021566048
0.035772834 0.06668167 0.074509904 0.07864482 0.011878571 -0.04641052 0.015386754 -0.021949722

weight_hh_l1 f4 [128, 128]
00000000: 614a ff3b 1515 393d 80d2 e93c 857a 8b3d
00000010: 1718 54bd 0e25 483d afdc 90bd a3fb 9f3d
00000020: 15a3 c23c 3074 833d 547d acbc c441 36bb
00000030: 134b 4fbd 79b7 0f3d 1e77 61bd 7e23 94ba
00000040: c2a1 aabb d53e 383c 486d d6bc 8754 08bd
00000050: 36f9 0bbd a222 883d 7e4a d4bc 7c96 013d
00000060: d77e 6dbc 3c36 26bd 5212 9ebd c595 b43d
00000070: 4f0e da3b f01c 3a3d 143b 94bd 9d47 09bc
00000080: 1dc3 22bd 089a 2abd f229 413d cc86 a93b
00000090: ed66 0f3c abbd 92bc be95 d9bb 922b 083b
000000a0: c251 03bd 1fea b13d 7079 ca3d ce4c 81bd
000000b0: 0cd4 aabc 2795 393d 8318 333c 0fb9 aa3d
000000c0: 1a0a d5bc 5f84 59bc e032 90bd b873 80bc
000000d0: f6e0 d73c 7968 91bd 74e1 a5bd 1a8e 083d
000000e0: 488b 473c 4716 babd aca6 42bd c5f6 a1bd
000000f0: 389c 99bb 8c7e c83c 160e d23c 317a cc3c
00000100: 79f4 0abd efcd a3bd 9873 893d abf9 4e3c
00000110: 0bfc 02bc 58f9 803d 098d 15bc f752 293d
00000120: f041 8d3d a717 a93c 6011 83bc ff81 9ebd
00000130: 7d99 7cbc 3fcd a6bd 8fbf abbd 5baa 75bd
00000140: 4979 113d 56b6 78bd 97e4 a8bb 64f3 86bc
00000150: 2ab1 9f3d c8d5 373d 10af 563d 4fc3 15bd
00000160: 8fec b8bc c49b a03d d1b1 8dbd bdb2 313d
00000170: 5f03 8f3c 0e07 8e3c 7434 b5bd 0113 95bd
00000180: 72af bfbd f7c0 943d 8920 033d dd2a acbc
00000190: fe45 83bc ec61 0bbd 31da 64bd 39ff 623b
000001a0: 7f9c 88bd 0b1c 3f3d ddbe 2a3d 6433 40bd
000001b0: c3b6 c3bd 78ad 57bd 908c 183d c21b 5e3c
000001c0: d869 b8bd 0deb c33c 26a2 30bb e9b9 e23c
000001d0: 2eec c23c 5476 03bd 0eca abbd 66c6 11bd
000001e0: 06e7 4bbd 4b5d 8dbd a199 2b3c 4381 583d
000001f0: 3ef4 8f3d 5420 b1bd 6330 4a3d 62ff e1bc
00000200: 40b1 ba3d ab8d 4cbd c478 053d 5676 9e3d
00000210: 5dd5 ff3c 5fdf 55bd 5e3d 9ebd 4a6e 203d
00000220: 9a5c 483d 4f4b 3ebd eb63 7f3c c0db 203d
00000230: 8eb4 963d 64a9 a63b 76cf a0bd e082 573c
00000240: 398d c5bc 1bee 493b 2383 4fbd 0a20 7a3d
00000250: a98a 003d 1e7d 923d e9dc 8e3d 92fb 76bc
00000260: 3590 483c 516b 843b 7ebf a2bd d538 e33b
00000270: 6396 503d af0a aabd 4331 173d 5c6a b13b
00000280: 221e cbbb 7fa6 943d f6dd 44bc 19ec 8cbd
00000290: 605f bc3b cfe0 96bb bde0 333d 13b0 533d
000002a0: 834e 843d 3939 d63c bfda 8c3d 909e 9ebd
000002b0: 7481 4e3d 6858 b13d fe21 b6ba a627 20bd
000002c0: 6427 113d 1409 3c3d c407 c43d d48e a63c
000002d0: 55c4 9ebd 2221 c8bc 7313 19bd 7423 0a3d
000002e0: d21c 9bbd ce47 7dbd aa1a 783d 7396 42bd
000002f0: a4c9 a7bd 576b 9c3c eb13 c5ba 8233 7dbd
00000300: 4e72 cc3c 17e8 a7bc 0904 29bd f9b3 b63c
00000310: 55c1 a1bc 7e22 abbd b1fd 5abd 65f1 adbc
00000320: c89d 603c 3eba 2abd 32d5 9ebd 3979 5d3c
00000330: da03 363d 7f39 993c 13b2 683d 5c61 26bd
00000340: 23c9 693d d710 4a3d f3f9 223b f11e 7ebd
00000350: d0ea 98bd 7ef5 6e3d 4a82 9e3d 11ed 243d
00000360: 0d7f ac3d 297a f3bc 114d 52bc 53d0 3a3d
00000370: 7583 943b 534c e93c e400 183d 8762 91bd
00000380: ac07 a5bc a838 313d 7314 7d3d 5b77 60bd
00000390: 8d69 c53c 86df 0a3c f974 a6bd d9be 02bc
000003a0: 03c0 94bc 65d8 3e3c 1138 213d 560d a8bc
000003b0: 43ac b13d e7e3 87bc 3db5 76bd 0b8b a9bd
000003c0: c32b 7cbd 8e39 24bd 8748 323d 92e5 a23d
000003d0: f487 ab3d 91ea 3dbd 1e59 7fbd 3289 063d
000003e0: d9cc 623d 9b8f 88bc 022f fcbc b012 58bd
000003f0: cd28 7abc a6c9 09bd b404 1cbd fcbf ab3d
0.007790849 0.04518612 0.028542757 0.06810478 -0.051780786 0.048863463 -0.07073342 0.07811668
0.023759404 0.064186454 -0.021055855 -0.0027810195 -0.050608706 0.035087083 -0.05504524 -0.0011302081
-0.0052072713 0.011245449 -0.026175156 -0.033283737 -0.034173213 0.06647231 -0.025914427 0.031637654
-0.014495573 -0.040579066 -0.07718338 0.08817629 0.0066545377 0.045437753 -0.07237831 -0.00837889
-0.039736856 -0.041650802 0.047159143 0.0051735397 0.008752567 -0.017912706 -0.006640165 0.0020777923
-0.032060392 0.08687233 0.098864436 -0.063134775 -0.020853065 0.04530826 0.010931137 0.083360784
-0.026005793 -0.013276189 -0.07040954 -0.015680179 0.026352387 -0.07100005 -0.080996424 0.033338644
0.012179203 -0.0908628 -0.047522232 -0.07908396 -0.004687812 0.024474405 0.025641482 0.02496061
-0.033924554 -0.07998263 0.06711501 0.012632768 -0.007994662 0.062975585 -0.009127864 0.041338887
0.06897342 0.020641161 -0.015999496 -0.077396385 -0.015417454 -0.08144616 -0.08386146 -0.059976917
0.035516057 -0.060720764 -0.005154203 -0.01647348 0.07797463 0.044881612 0.052413046 -0.036563214
-0.022573737 0.0784221 -0.069186814 0.04338335 0.017457662 0.017337348 -0.08847895 -0.07279015
-0.093596354 0.072633676 0.03201345 -0.021016533 -0.016024586 -0.034028932 -0.055872146 0.0034636988
-0.06670474 0.046657603 0.041685928 -0.04692401 -0.095563434 -0.052655667 0.037243426 0.013556423
-0.09004563 0.023915792 -0.0026952117 0.02767654 0.02379426 -0.03209527 -0.08388148 -0.035589598
-0.049780868 -0.0690256 0.01047364 0.05285765 0.070290074 -0.08648744 0.04936255 -0.027587596
0.09115839 -0.049939793 0.032585874 0.077374145 0.03122967 -0.052214976 -0.077265486 0.03916768
0.048916437 -0.04645854 0.015587787 0.03927207 0.07358657 0.005086111 -0.0785207 0.013153762
-0.024115192 0.0030812088 -0.05066217 0.06106571 0.031382237 0.071527705 0.06975729 -0.0150746275
0.012241413 0.0040411134 -0.079466805 0.006934265 0.05092467 -0.08302819 0.036912214 0.0054142904
-0.0061986605 0.07258319 -0.01201581 -0.068809696 0.0057486743 -0.004604436 0.0439155 0.05168159
0.064602874 0.026150333 0.0687766 -0.07745087 0.050416425 0.0865944 -0.0013895629 -0.03910031
0.035437956 0.045907095 0.09571794 0.020331778 -0.07752291 -0.024429861 -0.037372064 0.033725217
-0.075738564 -0.061836056 0.060572304 -0.04750676 -0.08192757 0.019094152 -0.0015035843 -0.0618167
0.024956848 -0.020496411 -0.041263614 0.022302615 -0.019745508 -0.08356188 -0.053464595 -0.02123327
0.013709493 -0.04168152 -0.077555075 0.013517671 0.044437267 0.018704174 0.05681045 -0.040620193
0.057076585 0.049332466 0.002486822 -0.062041227 -0.07466662 0.05833959 0.077396944 0.040265147
0.084226705 -0.029721336 -0.012835757 0.04560883 0.0045322725 0.028478777 0.037110224 -0.07098871
-0.02014526 0.043266922 0.06178708 -0.054801326 0.024098182 0.008476144 -0.081277795 -0.007980072
-0.018157965 0.011648272 0.03936011 -0.020514172 0.086754344 -0.016588164 -0.060231436 -0.082784735
-0.061565172 -0.04009395 0.0435262 0.07953943 0.083755404 -0.046366278 -0.06234085 0.032845683
0.05537114 -0.016670039 -0.030784134 -0.052752197 -0.015268517 -0.033639573 -0.038090423 0.083862275

bias_ih_l1 f4 [128]
00000000: 8df4 c63c b174 debc b7ac 9cbd 2744 523d
00000010: 4038 1a3d 181f 9f3d 3db3 a93d d23d 623d
00000020: 98ea 123d 12f2 cf3c 966c 483d 27eb b33d
00000030: b11a afbd 9d6d 6fbd 3109 9cbc d8a0 76bd
00000040: a6a8 133d 57f6 6ebd 8ecb 483c e1b9 3d3d
00000050: 6915 703d 5361 eabc f00b 98bc 8a36 ff3c
00000060: 342f b53d 8d4e 0bb9 c0d9 16bd d27c 9cbd
00000070: b7b8 5abc 98f7 8e3c 6995 3c3d b68b 04bc
00000080: 1d2e 9abd 3014 5b3d 9187 473d 7740 373d
00000090: 7fcf 86bd eec9 59bd d837 35bd aa23 8bbd
000000a0: 8b0e ab3d c342 2bbc 4bdb 9f3d 3575 913d
000000b0: 8f3d a93b df4d a83d e57d 1f3c eeb1 daba
000000c0: 76fe 32bd 5bee 9e3d 4b03 2c3d 9134 fbbc
000000d0: e55f 2ebd 2c1f 853d 5033 463d ddfa b93d
000000e0: 3b2b 22bc 1aee 223d 5249 393c a13c f73c
000000f0: 24bd b6bd 0418 e8bb cad2 51bd 14e1 52bd
00000100: 0cdd 393d 597b 9fbd 7f79 32bd 4b67 393d
00000110: bfd7 19bd aa13 5c3d dabc ca3c 7553 0fbd
00000120: 51c3 0dbd 047e 53bc b682 453d 3da8 963d
00000130: fd9e a8bd 0143 3fbd ca3c a0bd 4134 2dbd
00000140: 9e07 003d 6e03 d53c 8ac3 31bd 6090 9b3d
00000150: 038c 90bd ddd5 a33d 9fe1 6d3c 7117 283d
00000160: c228 63bd ed0e 4e3d 2119 7fbd 4ec7 5dbd
00000170: cc22 28bd e3ad 7ebd be27 303d 9790 d83c
00000180: 1ed7 93bd 5936 993c 0a72 493d 3c31 843c
00000190: b494 90bd 6eac 8c3d bf92 5cbd c02a 5fbd
000001a0: 373f 1e3d bd5c 02bd 6e3a 963d 9555 a83d
000001b0: 6946 613c b5c3 8fbd a9cf 7dbc 2915 eeba
000001c0: 48be 8fbd 3f41 7bbc a76d 01bd 0453 723d
000001d0: 1c32 213d 5fab 92bd 2799 aebd 3614 a1ba
000001e0: d6a4 9abd 8208 8bbd c16b 44bc 7b1f 613d
000001f0: 57b1 3c3d e4c8 1bbc df6c cbbb 9d7b 99bd
0.024286533 -0.027155252 -0.0765013 0.051334526 0.0376513 0.077696025 0.0828614 0.055234738
0.035868257 0.025383983 0.04893168 0.08785086 -0.08550013 -0.058454145 -0.019047352 -0.060211986
0.036049508 -0.058340397 0.0122555625 0.046319846 0.05861417 -0.02861086 -0.01856038 0.031153936
0.08846894 -0.00013285335 -0.036828756 -0.07640995 -0.0133497035 0.017452046 0.046040926 -0.00808995
-0.07528327 0.05348605 0.04871327 0.044739213 -0.065825455 -0.05317109 -0.04424271 -0.06793912
0.08352383 -0.010452929 0.07805499 0.071024336 0.005164809 0.08217978 0.009734605 -0.0016685107
-0.043699704 0.077603064 0.041995328 -0.030664714 -0.04257192 0.06500086 0.04838878 0.090810515
-0.009898002 0.039777853 0.011308985 0.030180277 -0.089227945 -0.007082941 -0.051226415 -0.051484182
0.045376822 -0.077871986 -0.0435729 0.045264523 -0.037559267 0.05372969 0.024748255 -0.0349917
-0.034610096 -0.012908462 0.04822036 0.07356308 -0.082334496 -0.04669476 -0.078240946 -0.04228616
0.031257264 0.026002612 -0.04339937 0.07595897 -0.07057955 0.079997756 0.014519124 0.04103798
-0.05545879 0.050307203 -0.062279824 -0.05414515 -0.04104881 -0.06217755 0.04300665 0.026436133
-0.07218765 0.018702673 0.04918102 0.016136758 -0.07059613 0.06868826 -0.053850885 -0.05448413
0.038634505 -0.031826723 0.07335363 0.082194485 0.013749697 -0.0701975 -0.015491405 -0.0018164265
-0.07018715 -0.01533538 -0.031598713 0.0591612 0.03935443 -0.07161593 -0.08525305 -0.0012289349
-0.07550971 -0.06788732 -0.011988581 0.054961663 0.046067562 -0.009508345 -0.006208047 -0.074942805

bias_hh_l1 f4 [128]
00000000: 5219 0b3d c739 8fbd 5e3b a63d 1ffa 223d
00000010: 67b5 acbd f317 873b 8005 ee3b 9c0e 973d
00000020: 28e6 2c3d 3ac0 a43c 4500 aebc c620 d83c
00000030: b269 f63c e9d2 1f3d a350 573d 27cd 9539
00000040: 9fd9 7e3d 5dcc 33bb e307 993d 6981 0d3d
00000050: fbd7 093d abec 81bc 9441 763d c979 d53c
00000060: 67df 85bd 7348 6abd 60cb d13c f9a1 263d
00000070: 7181 293c 16e8 1bbc 99b9 023d 9890 9dbd
00000080: d482 03bd 705e ac3d cd84 84bd 98f8 06bd
00000090: ecfa 53bd 5135 823b e9be 8dbd 0d33 99bd
000000a0: cca4 e3bc 32de 9c3d 4b6a 1dbc fd89 07bb
000000b0: b3a5 87bc 9b62 a23d 18cb 4fbc 523b c2bc
000000c0: 26d8 043c 9471 debc 522d 52bd 9d68 333d
000000d0: 7035 f3bc 1e1b a23d a035 14bd d8e3 02bd
000000e0: 2669 27bd c6fe abbc 8488 a6bb 1952 92bd
000000f0: 1490 56bd 4e9b 1f3d 9249 3dbd 0d38 793d
00000100: e7b6 9ebd e60f 5fbc d979 703c 98b8 98bc
00000110: a422 b3bd e65b b4bd b57a 2abd 82d7 45bc
00000120: 19bc 3b3c 572e 303d 1ece 3bbd 635a cc3c
00000130: c96e b13c fded 353d eff4 7e3d 5a1a f0bc
00000140: c172 a53c 6ee7 57bd 1ddd 85bb 05cb 823c
00000150: 0916 533b 4920 9cbd d75d 9b3d dda1 503d
00000160: 7827 24bc 81b4 343d fbad c63b ab55 423d
00000170: db98 27bd 4da5 bc3c 78db 42bd 89aa 933d
00000180: dc3c 9abc c81a 2abc 0e46 2a3d c572 103d
00000190: 7523 77bd f103 30bd e1d3 9cbd 6e6e 423d
000001a0: cf8d 7b3d 4fdf 963a c513 a73c 6025 7dbd
000001b0: f9bc 1ebd 9914 c0bb fa88 bbbc 5d3d 743c
000001c0: bf4c 03bc db0a 3b3d 79ba 593d 74e8 97bd
000001d0: 442b 3a3c b3e6 2ebd c331 2cbd 2d72 853d
000001e0: 4954 d93c d9c2 01bd 622b a2bd d1d5 4fbd
000001f0: 11fd 8bbd 1517 933d fcb5 a1bd 6701 2f3d
0.033959694 -0.06993442 0.08116792 0.039789315 -0.08433037 0.004122728 0.0072638392 0.073758334
0.04221168 0.020111192 -0.021240363 0.026382815 0.030079696 0.0390195 0.052567136 0.00028572345
0.06221926 -0.0027435042 0.074722074 0.034547243 0.03365324 -0.015859922 0.060121134 0.026059048
-0.06536751 -0.057198 0.025609672 0.040681813 0.010345803 -0.009515783 0.03191528 -0.07693595
-0.03210719 0.0841645 -0.06470642 -0.03295192 -0.05175297 0.003973641 -0.06921179 -0.0748044
-0.027788542 0.07659568 -0.009607862 -0.0020681613 -0.016558504 0.07928964 -0.012682699 -0.023709927
0.008108174 -0.027153768 -0.051312752 0.04380094 -0.029688567 0.079153284 -0.036183953 -0.03195557
-0.04087176 -0.020995509 -0.005082192 -0.07144565 -0.052383497 0.03896647 -0.04621274 0.06084447
-0.077497296 -0.01361463 0.014677488 -0.018642709 -0.087468415 -0.08806591 -0.04162093 -0.012075307
0.01145842 0.043012943 -0.045850866 0.024945443 0.021659272 0.044416416 0.062245306 -0.02930944
0.02019632 -0.052710943 -0.0040851966 0.015965948 0.003220918 -0.076233454 0.07586258 0.050935615
-0.010019176 0.044117454 0.0060632206 0.04744498 -0.04091726 0.02302804 -0.047572583 0.072102614
-0.018827848 -0.010382362 0.041570716 0.035265703 -0.06033655 -0.04297251 -0.076576 0.047468595
0.061414536 0.0011510643 0.020395169 -0.06180322 -0.038754437 -0.0058618304 -0.022892464 0.014907208
-0.008013903 0.04566465 0.05315635 -0.07417384 0.011362854 -0.04270048 -0.042039644 0.06515918
0.026529448 -0.03167996 -0.07918431 -0.05074102 -0.06835378 0.07182137 -0.07896039 0.042725947

weight f4 [2, 128]
00000000: 6692 323d 4610 9cbd cb5d 82bc a1b0 7fbd
00000010: 8ce7 70bd c9d0 4dbd 1708 93bd f93b 6cbd
00000020: 43ee acbd 1c12 9b3d 2719 70bc a59d 9f3d
00000030: 8c60 fa3c 29cb 5d3c e98b 263c 69c5 91bd
00000040: f763 6a3d b3ec 6d3d aacf abbc a311 60bd
00000050: 84a6 2f3d a312 993d 999b babc 7da0 afbd
00000060: 3cab f23c faa7 c63c 60cd c5bc 3dd2 ef3c
00000070: fcf4 2abd 5c49 9f3d a425 c03c e6c1 073d
00000080: 9cf2 863d 6434 41bd 827c 6bbd 9bf8 e93c
00000090: 2e7b 973d a185 d4bc 5e91 753d 29a6 6fba
000000a0: 135e 813d e6ca 52bd e2d2 a8bd 9871 d03c
000000b0: 6a9d a7bd 3002 d0bc 7469 72bc 0014 bf3d
000000c0: f84d 753c 13a0 a63d 838d 5bbd 3b22 583d
000000d0: 7ea2 bdbd 7f54 1c3d bdc1 813d 52d5 3b3c
000000e0: c666 b5bd 65fd 54bd ce3d b1bd e84a 6a3d
000000f0: 217b 873d 38b8 b23d d9a2 3ebd f26c 01bd
00000100: 377b a6bd 7d12 6ebd dcb3 093c d7fc adbc
00000110: 304c 81bd 384e 94bd 1935 1a3d 455e e43d
00000120: 819d 823d 01cc 20bd d547 843d 6714 b73d
00000130: cd5a ba3c 5826 dcbc b4fa 47bb f2bc 9bbd
00000140: 6fbe 2fbb 7eb8 263d 1219 a83d 9008 9cbd
00000150: e92c 2e3c 6fa2 c9bb b6d4 7bbb 624e 78bc
00000160: 5edf 573b f4c1 9d3d c561 34bd 518a b4bd
00000170: 5d80 16bd c4f5 b7bd 06e3 953c cce2 133d
00000180: 9bf4 0fbc 89ac 46bd c5bd 04bb f962 d03b
00000190: dae3 0d3d 0c70 a1bc 67e3 48bd c147 8fbd
000001a0: 02d0 39bd 55f9 15bd 477f 473c a6fd 18bd
000001b0: 8502 6a3d 5401 fd3c 15aa 593d 2755 793d
000001c0: 02c6 6cbd e1f1 2abb 1fc5 b03d b90a 21bb
000001d0: 04c5 1abc 5d1f b93d 975d 813d b53d a4bd
000001e0: 2592 34bd 58f9 17bd 422a 02bc 2fc3 193d
000001f0: d9da 27bd 7ef4 34bd 7930 b03c 1f27 e23c
00000200: bcd6 acbd 9261 b43d 5dce 9a3c 1bd9 5f3d
00000210: 6c89 8abd 16c0 26bd 97de 8f3d 448c 6b3d
00000220: c7ef 7bbd bf00 513d 1534 b0bc e19f 6c3d
00000230: ec46 bbbd 961c b9bd 70be eb3b fda6 013d
00000240: 9e67 b23c b509 a4bd cb3e 03bd 8edd a83c
00000250: 1e50 a13d 3f84 773d 671c 9d3d fa6c 5f3d
00000260: 235f ae3d 5110 bcbc 87d0 44bc 579f 51bc
00000270: 4cce b2bc e270 98bc 224e e6bc b196 10bd
00000280: 16f4 9a3d d96b 973d 5edc 93bc e5dd 19bd
00000290: b439 2cbd 3fd3 95bd 8df2 1a3d 5dd8 fc3c
000002a0: ff1f 41bb f1ba 9dbd 6336 9bbd 6c7d aabb
000002b0: 98d6 34ba 7a15 783d f9c7 83bd 9e43 973d
000002c0: 63d7 63bd f7e4 723d 8c2d 1bbc 14d3 1bbd
000002d0: 4201 a8bc 00c7 8b3d a8bd 25bd d460 bdbc
000002e0: 3535 5c3d 1aa0 c43d 4a33 99bb 9692 4ebb
000002f0: 37d1 b5bd e195 bb3d 8082 9abd e0fb 36bd
00000300: b891 913d 34c7 9c3c 2d75 9f3c e31b 573d
00000310: 7725 a3bd 20fc 9ebc 19ab 1cbd b6ed 03bd
00000320: 97f9 0cbd 2cb2 32bd 8355 623c a8c7 973d
00000330: 6b6d 833c f245 703d b708 47bd 963d a93d
00000340: c0be 90bd 7a67 223d 1622 a13d d0e1 50bd
00000350: cb41 87bd 4d5f 9d3d 5ea4 713d aee6 32bd
00000360: c445 0abd 9071 9e3d 1e69 12bc 1dc9 b4bd
00000370: 10a4 103d 34a2 203d a2c2 a93d 03ca 1abb
00000380: 3802 3d3d adca a63c c161 01bd 1268 0a3d
00000390: bda3 093d 5b91 413d 6230 aebd 5c98 a2bc
000003a0: 1791 6abd f714 b1bd cd9a 943d 0c62 ba3d
000003b0: 58fa 38bb a0e0 00bd 4ce5 93bd 621e cb3c
000003c0: 5634 82bd 482a a53d dce3 e3bc f350 83bd
000003d0: 4215 11bd a57a 443d 908b e8bc 7dad 863d
000003e0: 83f6 f2bb 67d5 3cbd c0db 0b3d ab78 febb
000003f0: 6b3d b2bb cee7 2b3d b381 50bd a0f5 14bd
0.043596648 -0.076202914 -0.015913865 -0.062424306 -0.05881457 -0.05024794 -0.071792774 -0.057674382
-0.08443882 0.075718135 -0.014654434 0.0779374 0.030563615 0.013537207 0.010165193 -0.07117731
0.05722424 0.058087062 -0.020973045 -0.05470432 0.04288341 0.07474258 -0.022779273 -0.085755326
0.029622667 0.02425002 -0.024145782 0.029275054 -0.04173754 0.07777664 0.023455448 0.0331439
0.06589243 -0.047169104 -0.057491787 0.028560927 0.073965415 -0.025942625 0.059953086 -0.0009141886
0.06316771 -0.05146303 -0.08243348 0.02544479 -0.08184321 -0.025391668 -0.01479565 0.093299866
0.0149722025 0.081360005 -0.053601753 0.05276702 -0.092595086 0.03816652 0.06335781 0.011464434
-0.08857493 -0.05199947 -0.086543664 0.057200342 0.06615282 0.08726543 -0.046542022 -0.03159804
-0.0812897 -0.0581231 0.008404698 -0.021238727 -0.0631336 -0.072414815 0.037648294 0.11150793
0.06377698 -0.039257053 0.064590134 0.08939438 0.022748375 -0.026873752 -0.003051442 -0.07604398
-0.0026816388 0.04070329 0.08207907 -0.07618821 0.010630825 -0.006153397 -0.0038426346 -0.015155407
0.0032939534 0.07703009 -0.044038553 -0.08815444 -0.03674351 -0.08982423 0.01829673 0.036104962
-0.008786346 -0.048504386 -0.0020254713 0.0063594547 0.034641124 -0.019706748 -0.049044993 -0.06996108
-0.045364387 -0.036614735 0.012176341 -0.037351273 0.05713131 0.030884422 0.05314072 0.060872223
-0.057806022 -0.0026084112 0.08631348 -0.0024573042 -0.009446386 0.09039185 0.06316679 -0.08019582
-0.044084687 -0.037103027 -0.007944645 0.037539657 -0.040980194 -0.04417848 0.021507489 0.027606545
-0.08439395 0.088076726 0.01889723 0.054650407 -0.067644924 -0.04071053 0.070248775 0.057506815
-0.061507966 0.051026102 -0.02150921 0.05776966 -0.09144387 -0.090386555 0.007194333 0.031653393
0.021777924 -0.08009664 -0.032042306 0.020613458 0.07876609 0.060428854 0.07671433 0.054547288
0.0851424 -0.022956999 -0.012012607 -0.012794337 -0.021826886 -0.018608514 -0.028113429 -0.03529996
0.07566087 0.07393617 -0.018049415 -0.03756513 -0.042047217 -0.073156826 0.03782897 0.030864889
-0.0029468534 -0.07701672 -0.07578733 -0.0052029397 -0.0006898432 0.060567357 -0.06434626 0.07385944
-0.05562533 0.05930039 -0.009471308 -0.038043097 -0.020508412 0.068250656 -0.040464073 -0.02311746
0.05376168 0.096008494 -0.0046753036 -0.0031520477 -0.08877795 0.091594465 -0.07544422 -0.0446738
0.07107872 0.019137956 0.019465053 0.05251683 -0.0796613 -0.019407332 -0.03824911 -0.03220912
-0.034417715 -0.04362695 0.013814333 0.07411128 0.016043385 0.058660455 -0.048592295 0.082637
-0.07067633 0.039649464 0.078678295 -0.0509966 -0.06604346 0.07684193 0.058994643 -0.043677025
-0.03375794 0.07736504 -0.008936195 -0.08827422 0.035312712 0.03921719 0.082890764 -0.0023618944
0.046144694 0.020360315 -0.031587366 0.033790655 0.03360342 0.047257762 -0.08505322 -0.019848041
-0.057267275 -0.08646577 0.072560884 0.09100732 -0.0028225388 -0.03146422 -0.07221469 0.024794761
-0.063576385 0.08064705 -0.027818613 -0.06411924 -0.035420664 0.047968525 -0.028386861 0.06576059
-0.0074146404 -0.046101954 0.034145117 -0.0077658496 -0.0054394505 0.041969113 -0.05090494 -0.03636706

bias f4 [2]
00000000: 4007 a2bc 9a24 aabd
-0.019778848 -0.083077624
