saved_models/rnn_predict_increase.model (torch, 438647 bytes, 26 tensors)

weight_ih_l0 f4 [128, 13]
0	0xbcb3efd4	-0.021964945
1	0x3d58b524	0.052907124
2	0x3d386bcb	0.045024674
3	0x3d7f0ef9	0.06227014
4	0xbd66272f	-0.056189712
5	0x3cbee36e	0.023301806
6	0xba036370	-0.0005012071
7	0xbb545fe9	-0.00324058
8	0xbc9e19b5	-0.019299367
9	0xbc46bd01	-0.012130023
10	0x3c8ea4a5	0.017412493
11	0x3e091731	0.13387753
12	0x3db79282	0.08963491
13	0x3d3ff7d7	0.046867218
14	0x3d683c59	0.056698177
15	0x3d989ff3	0.07452383
16	0x3de17cbe	0.11010121
17	0x3d755bd8	0.059902042
18	0xbd699cee	-0.057034425
19	0x3d516c18	0.051128477
20	0xbcfa09e6	-0.030522298
21	0x3d986a03	0.07442095
22	0x3bd12952	0.0063830996
23	0xbd9b1695	-0.075726666
24	0x3d8155e5	0.06315211
25	0xbbce93f9	-0.006304261
26	0x3a1b7f79	0.00059317757
27	0xbd543ba2	-0.051814683
28	0xbd05683f	-0.03257012
29	0x3d5a66a8	0.053320557
30	0xbc7d0eb6	-0.015445402
31	0x3ccbc11c	0.024872355
32	0xbd60684e	-0.054786973
33	0x3c14dde0	0.009086102
34	0xbd26d3e5	-0.040729422
35	0xbd775001	-0.060379032
36	0x3d949e32	0.07256736
37	0x3cab9d42	0.02094901
38	0x3db433f3	0.08798971
39	0xbd215373	-0.039386224
40	0xbd8c53ad	-0.068518974
41	0xbcecd88f	-0.028911857
42	0xbca4a60d	-0.02009871
43	0xbd253ce6	-0.04034128
44	0x3d8df08f	0.069306485
45	0xbd20fc5f	-0.03930318
46	0xbb89a398	-0.00420041
47	0x3d8c0134	0.06836167
48	0xbb5dfd12	-0.0033872765
49	0x3c11b1df	0.008892505
50	0x3ccd3b6a	0.025052745
51	0xbd264b87	-0.040599372
52	0x3cdafe60	0.026732624
53	0x3d74060d	0.059576083
54	0xbd8bf39f	-0.068335764
55	0x3d63255f	0.05545556
56	0x3dd734e3	0.10508134
57	0xbd66fa51	-0.056391064
58	0x3c8b822e	0.017029848
59	0x3d097b82	0.03356505
60	0x3ced6b47	0.028981818
61	0x3d661ffd	0.05618285
62	0xbd75711f	-0.059922334
63	0xbd2caf26	-0.042159222
64	0x3d8f9c8b	0.0701228
65	0xbc82d569	-0.015970903
66	0xbd326a6e	-0.04355853
67	0x3c042dab	0.008067529
68	0xbdac9303	-0.08426478
69	0x3d269b88	0.04067567
70	0x3d3e0b87	0.046397712
71	0xbdd07380	-0.1017828
72	0x3c5f6daf	0.01363699
73	0xbd7342ce	-0.05938988
74	0xbad538d7	-0.001626755
75	0x3d95d554	0.0731608
76	0xbdbb4bbc	-0.091453046
77	0x3d5b01b7	0.053468432
78	0xbd96ba02	-0.07359697
79	0xbd046166	-0.03231945
80	0xbdb2e99a	-0.08735962
81	0xbd3a0639	-0.04541609
82	0x3a414ad5	0.00073735166
83	0x3daf5d2b	0.08562692
84	0x3d816199	0.063174434
85	0xbd9be4ca	-0.076119974
86	0x3d76f830	0.060295284
87	0x3da097a3	0.078414224
88	0xbd9c74cd	-0.076394655
89	0xbe35fa1d	-0.17771192
90	0xbd652c1b	-0.055950265
91	0xbd88531d	-0.066564776
92	0x3cd9f11e	0.026604231
93	0x3c5730d2	0.013134198
94	0xbd932ac5	-0.07185892
95	0xbad5847b	-0.0016290093
96	0x3c3eb9a7	0.011640943
97	0x3d6f4a2f	0.058420356
98	0xbd5e3066	-0.054245375
99	0xbd2692ae	-0.04066723
100	0x3d2df081	0.04246569
101	0xbda3250a	-0.07966049
102	0x3d771ccb	0.060330193
103	0xbd3a3f4b	-0.045470517
104	0xbd06b043	-0.03288294
105	0xbd2f68b1	-0.04282445
106	0xba9f740f	-0.0012165325
107	0xbdc1a443	-0.094551586
108	0xbd88bdeb	-0.06676849
109	0xbbf03419	-0.0073304293
110	0x3d034c93	0.03205545
111	0x3c78d84f	0.015188291
112	0x3d368fd6	0.044570766
113	0xbc410436	-0.011780789
114	0x3d93f1f6	0.07223885
115	0xbc034307	-0.008011586
116	0xbd2cd697	-0.042196836
117	0x3dce837f	0.10083675
118	0xbd8e4c12	-0.06948103
119	0xbd2310b3	-0.039810847
120	0x3d98f510	0.07468617
121	0xbd7132a0	-0.05888617
122	0xbd0e1cfd	-0.034695614
123	0xbd64146c	-0.05568354
124	0xbd9887b7	-0.074477606
125	0xbcfffdb4	-0.031248905
126	0x3d9e2277	0.077214174
127	0x3c7e8b9c	0.015536215
128	0xbdd8ca8b	-0.10585507
129	0xbca9151d	-0.02063995
130	0x3db9481a	0.090469554
131	0xbd04b34c	-0.032397553
132	0xbd9fbf7d	-0.07800195
133	0xbc764c5f	-0.015032857
134	0xbd1bc7cc	-0.038032338
135	0xbd2f567d	-0.04280709
136	0xbaf42de9	-0.0018629405
137	0xbd731bf3	-0.059352826
138	0x3da293a4	0.079383165
139	0xbcc30b5b	-0.023809126
140	0xbd59c084	-0.053162113
141	0xbd69cafe	-0.057078354
142	0x3cfe7139	0.031059848
143	0x3c301d77	0.0107492125
144	0x3cdb9db8	0.026808605
145	0xbd389a12	-0.045068808
146	0x3ca823e6	0.02052493
147	0x3d8d6ce4	0.06905535
148	0xbcac8016	-0.02105717
149	0xbabf50d5	-0.0014596233
150	0xbd3f9ebb	-0.046782237
151	0x3bd951e0	0.0066320747
152	0xbdac2cf2	-0.0840701
153	0x3dba55ad	0.090983726
154	0xbd337b27	-0.04381862
155	0x3d90e496	0.07074849
156	0xbd144914	-0.036202505
157	0xbd6ef1f6	-0.05833622
158	0x3d442a06	0.04789164
159	0x3a4697a2	0.00075756956
160	0x3db3e47f	0.087838165
161	0xbd670bfb	-0.05640791
162	0xbd3583e5	-0.044315238
163	0x3dbe3575	0.0928754
164	0x3d398f82	0.045302875
165	0x3d188ae8	0.037241846
166	0xbd15575f	-0.036460277
167	0x3d7d174d	0.0617898
168	0x3c9030a6	0.017601322
169	0xbd9c86be	-0.076428875
170	0x3daed5c4	0.08536866
171	0x3d0b05f0	0.03394121
172	0xbd9b659d	-0.075877406
173	0x3d78d014	0.060745314
174	0xbcd2f0bf	-0.025749562
175	0x3d8d5099	0.069001384
176	0x3d52b45a	0.051441528
177	0x3d127dcd	0.035764504
178	0xbb72c28f	-0.0037042235
179	0xbd69436c	-0.056949064
180	0xbd627493	-0.055286955
181	0xbdd0fff4	-0.10205069
182	0xbd9802ba	-0.07422395
183	0xbd3c8e76	-0.0460343
184	0xbbf45914	-0.007456908
185	0xbce11fcd	-0.027480984
186	0xbb3e04a0	-0.0028994456
187	0xbca7b55e	-0.020472225
188	0x3d3f8a73	0.046762895
189	0x3c50166b	0.012700657
190	0x3d711a05	0.058862705
191	0x3d194976	0.037423573
192	0x3d806d3f	0.06270837
193	0xbdb5f4f9	-0.088846155
194	0xbd6ac778	-0.057319134
195	0xbd1fd7c5	-0.039024133
196	0x3d59fc21	0.053218964
197	0x3d5d3be9	0.054012213
198	0xbc95162d	-0.01819905
199	0xbc1f0c82	-0.009707572
200	0x3cfd3dc1	0.030913236
201	0x3b434ccd	0.0029800416
202	0x3cbed15b	0.023293188
203	0xbd6dd0df	-0.058060523
204	0xbb940d87	-0.004518214
205	0x3d507a81	0.05089808
206	0xbc9a5bfc	-0.01884269
207	0x3cbaa1f7	0.022782309
208	0x3c5d80c9	0.013519474
209	0xbca5cb51	-0.02023855
210	0xbd03cba2	-0.03217662
211	0x3d369bd1	0.04458219
212	0xbd665274	-0.056230977
213	0xbcef65ea	-0.029223401
214	0xbd783c44	-0.06060435
215	0x3d09fe85	0.033689994
216	0xbc18e9eb	-0.009333114
217	0x3d993703	0.07481196
218	0x3bb5e053	0.005550423
219	0x3b0e7226	0.0021735518
220	0xbdec129d	-0.11526988
221	0xbb91c1a1	-0.004448131
222	0x3d456479	0.04819152
223	0xbd87448b	-0.066048704
224	0xbcd31d64	-0.02577085
225	0xbd7dfe86	-0.06201031
226	0x3c2b6e54	0.010463316
227	0xbd246ad5	-0.040140945
228	0x3d1c057d	0.03809117
229	0x3d403dd2	0.046933956
230	0xbc93bfda	-0.018035818
231	0x3da2518d	0.07925711
232	0x3dffb908	0.12486464
233	0x3c329dcc	0.0109018795
234	0x3d8dd681	0.06925679
235	0x3d3135a0	0.04326403
236	0xbc7f3f5e	-0.015579073
237	0xbd518812	-0.051155157
238	0xbd435065	-0.047684092
239	0x3d36ea4e	0.044657044
240	0x3c8b70bf	0.017021535
241	0xbca6ac89	-0.020345943
242	0xbd64411b	-0.055726152
243	0x3d2fde63	0.042936694
244	0xbd8df5bb	-0.06931635
245	0xbca3f126	-0.02001245
246	0x3e201b41	0.15635397
247	0xbd04a8bf	-0.03238749
248	0x3c7abe6b	0.015304188
249	0xbd6ccda9	-0.05781332
250	0xbd9e4072	-0.07727136
251	0x3da069e3	0.07832696
252	0x3cac1db5	0.02101026
253	0xbcf45710	-0.02982667
254	0x3d762647	0.060095098
255	0x3d89284a	0.06697138

weight_hh_l0 f4 [128, 128]
0	0xbdad48f6	-0.08461182
1	0x3d30df85	0.043181915
2	0x3d340825	0.04395308
3	0x3da2ed7e	0.07955454
4	0xbd82d7a3	-0.06388786
5	0x3da2e66b	0.07954105
6	0xbad3b862	-0.0016152973
7	0xbd9a6d82	-0.07540418
8	0xbd0db987	-0.03460076
9	0xbd2c7778	-0.04210612
10	0xbc41554c	-0.0118001215
11	0xbd7af9d5	-0.061273415
12	0x3da839af	0.08214127
13	0x3d1f9803	0.03896333
14	0xbd241cff	-0.040066715
15	0xbd74cde1	-0.059766654
16	0xbd1600e5	-0.036621947
17	0x3d81d44b	0.0633932
18	0x3c94d993	0.018170154
19	0x3d601438	0.054706782
20	0xbd8dd3b9	-0.069251485
21	0x3dd36969	0.1032284
22	0x3d5dacf5	0.054120023
23	0xbd04bfa2	-0.032409318
24	0xbc949a86	-0.018140089
25	0x3d0d4f51	0.03449947
26	0xbcdd4c35	-0.027013877
27	0xbb752ba6	-0.003741005
28	0xbce199b3	-0.02753911
29	0x3cb04435	0.021516899
30	0x3d21c54f	0.03949481
31	0xbd8942a1	-0.067021616
32	0x3b76b928	0.0037646983
33	0x3b81da4a	0.0039627897
34	0xbdb78e67	-0.08962708
35	0x38a445e1	7.833145e-05
36	0x3d8426e1	0.06452728
37	0x3d270875	0.04077955
38	0xbd6077c2	-0.05480171
39	0xbcdfec54	-0.02733437
40	0x3d4f6701	0.05063534
41	0xbd210a9f	-0.03931677
42	0x3ba61d90	0.005069442
43	0x3d9a340d	0.07529459
44	0x3c414d7b	0.011798258
45	0x3c8ccdaa	0.017187912
46	0x3d6b58bb	0.057457667
47	0xbd22da47	-0.039758947
48	0x3d1cfdd6	0.038328014
49	0xbd5c1f87	-0.053741004
50	0x3b3c70ba	0.0028753714
51	0xbd9c874d	-0.07642994
52	0xbaf8f004	-0.0018992429
53	0xbd0c0c9a	-0.034191705
54	0xbd08db24	-0.033412114
55	0xbd6e794b	-0.058221143
56	0xbc943e71	-0.01809618
57	0x3cfc640e	0.030809429
58	0xbc63c85f	-0.013902753
59	0xbca515a8	-0.020151928
60	0x3da84daf	0.08217942
61	0xbdc828a0	-0.097733736
62	0xbccf10f9	-0.025276648
63	0xbca81549	-0.020517962
64	0xbb93765b	-0.004500193
65	0x3d3d1ed0	0.046171963
66	0x3c7b656c	0.015344005
67	0x3d4a3aa6	0.049372338
68	0x3c912115	0.01771597
69	0x3d5ef224	0.054430142
70	0x3d534a96	0.051584803
71	0x3da47805	0.080307044
72	0x3bef02d4	0.0072940383
73	0xbd077586	-0.033071063
74	0x3d9b3f55	0.07580439
75	0x3d42d564	0.047566786
76	0x3d222605	0.03958704
77	0x3b8515cc	0.0040614363
78	0x3ccb3560	0.024805725
79	0x3bb2ec7d	0.0054603205
80	0x3d573521	0.052540902
81	0x3da4fb0c	0.08055696
82	0x3db60cf2	0.08889188
83	0x3c77d13a	0.015125567
84	0xbcb6400e	-0.02224734
85	0x3d4438dd	0.04790579
86	0xbde1d835	-0.11027566
87	0x3d5fd80e	0.054649405
88	0x3d819404	0.0632706
89	0xbd935428	-0.07193786
90	0x3d013adb	0.03155027
91	0x3d06fe28	0.032957226
92	0x3c5188be	0.0127889495
93	0xbd2ef1cb	-0.04271106
94	0xbda15d5b	-0.07879134
95	0xbd8ed913	-0.06974997
96	0xbd423a4b	-0.047418874
97	0x3d0e85ce	0.034795575
98	0x3d9148a0	0.0709393
99	0xbd30f131	-0.043198768
100	0x3d7cc2be	0.061709158
101	0x3d0a2527	0.033726837
102	0x3dac6ff2	0.084197894
103	0x3d1723a5	0.036899228
104	0x3e097558	0.1342367
105	0x3cfa1139	0.03052579
106	0xbd85fe51	-0.06542648
107	0xbda3ec30	-0.080040336
108	0xbd620e10	-0.055189192
109	0x3db06dec	0.08614716
110	0x3db062fa	0.08612628
111	0x3d2a6ea8	0.041609436
112	0xbcd93b51	-0.026517542
113	0x3da5be49	0.08092935
114	0xbd8a1d63	-0.06743886
115	0x3c26bb34	0.010176469
116	0xbd45a959	-0.048257206
117	0xbd711c53	-0.058864903
118	0x3d62ec1f	0.055400964
119	0xbd98a76c	-0.07453808
120	0x3c57aed1	0.013164238
121	0xbc0a35e8	-0.008435704
122	0xbd4e4341	-0.050357107
123	0x3cbfb39a	0.02340107
124	0xbd96e503	-0.07367899
125	0x3da79293	0.08182254
126	0xbbd5b128	-0.006521363
127	0x3ca877c0	0.020564914
128	0xbda1f760	-0.07908511
129	0xbd94a627	-0.072582535
130	0x3d685d66	0.056729697
131	0xbcf9d2b4	-0.030495979
132	0xbd958acc	-0.07301864
133	0x3c80f931	0.015743824
134	0x3d87ef83	0.0663748
135	0xbcb35c92	-0.021894727
136	0x3cbcdf86	0.023055803
137	0x3db090ca	0.08621366
138	0xbcecceea	-0.028907258
139	0xbce55ac0	-0.027997375
140	0xbd928e0a	-0.07155998
141	0x3d6636d5	0.056204636
142	0xbcdfb3cd	-0.027307415
143	0x3c6827b7	0.014169625
144	0xbcf76687	-0.030200256
145	0xbde191b2	-0.11014117
146	0xbdc06604	-0.09394458
147	0xbd6b48ee	-0.057442598
148	0xbb38ee1f	-0.0028218103
149	0xbd74370a	-0.0596228
150	0xbd4ed133	-0.050492477
151	0xbd3a1102	-0.045426376
152	0xbd9f3f8f	-0.07775795
153	0x3d29daaa	0.0414683
154	0x3c9a820c	0.01886084
155	0x3d0df352	0.034655876
156	0x3c15615c	0.009117451
157	0x3da389e0	0.07985282
158	0x3db1db22	0.086843744
159	0x381cf023	3.7416943e-05
160	0x3d95d194	0.073153645
161	0x3d7953fd	0.060871113
162	0x3db4f592	0.08835901
163	0x3d035d1f	0.03207123
164	0xbd6bf759	-0.057608936
165	0x3a91fc84	0.0011137878
166	0x3dcc8dd5	0.0998799
167	0xbd02d6db	-0.031943183
168	0x3cdcbdc7	0.026945962
169	0x3d2d36b1	0.042288486
170	0xbccea697	-0.02522592
171	0xbcd3ad6e	-0.025839534
172	0xbce61441	-0.02808583
173	0xbbcaf195	-0.0061933496
174	0xbd9272a9	-0.07150776
175	0xbc7e26b3	-0.015512156
176	0x3d6474c9	0.055775438
177	0xbba97b32	-0.0051721567
178	0x3b964bd0	0.0045866743
179	0xbcddda10	-0.02708152
180	0x3d95bb9b	0.073111735
181	0x3d420fd6	0.047378384
182	0x3ba687c8	0.0050821044
183	0xbca5655b	-0.020189932
184	0xbd6407d7	-0.05567154
185	0x3d7413cb	0.05958919
186	0xbcbf60dc	-0.023361616
187	0x3d57b408	0.052661926
188	0xbd60decf	-0.054899987
189	0xbd8083fe	-0.062751755
190	0xbd1782df	-0.036990043
191	0x3d8a74d6	0.06760566
192	0xbd475534	-0.04866524
193	0x3d1b9ad1	0.03798944
194	0x3c2bcd62	0.010485979
195	0x3d205534	0.039143756
196	0x3d8e51e5	0.06949214
197	0x3d2b773d	0.04186176
198	0x3da4f63c	0.08054778
199	0x3d71cb94	0.059032038
200	0xbd01a9e7	-0.031656172
201	0xbdad8b7a	-0.08473869
202	0x3b59f7f2	0.003325936
203	0x3d8ef8c1	0.0698104
204	0xbde656e7	-0.11247044
205	0x3d119d45	0.035550375
206	0x3cde5f29	0.027144985
207	0xbb7e117c	-0.0038767746
208	0x3cddaeb2	0.02706084
209	0xbd54b7f4	-0.051933244
210	0xbca4df93	-0.02012614
211	0xbd648adc	-0.05579649
212	0x3dcc3105	0.09970287
213	0x3ce3bf79	0.027801262
214	0x3d52a7c9	0.051429544
215	0xbd8a4fbd	-0.0675349
216	0x3d06acdf	0.032879706
217	0x3d8548a2	0.06507994
218	0xb99020bc	-0.0002749021
219	0xbd4102e8	-0.047121912
220	0xbc60ca81	-0.013720156
221	0xbd564b55	-0.052317936
222	0xbb4e02d7	-0.0031434798
223	0xbd6b315a	-0.057420112
224	0xbdaca877	-0.084305696
225	0xbc577c17	-0.013152144
226	0x3b2d2a44	0.0026422897
227	0xbc869dc2	-0.016432647
228	0x3d8ad4b3	0.067788504
229	0xbd101148	-0.03517273
230	0xbcd034a3	-0.025415724
231	0x3dd4fefe	0.104001984
232	0x3c19fac9	0.009398171
233	0x3d3c62d0	0.045992672
234	0x3d500d6e	0.050794058
235	0xbd0012a9	-0.031267796
236	0xbc1f4d8f	-0.009723081
237	0xbc82ba1f	-0.01595789
238	0x3c7ab7e8	0.015302636
239	0x3db73125	0.089449205
240	0x3d61258a	0.05496744
241	0x3d60fc65	0.054928202
242	0x3d0a870d	0.0338202
243	0xbde91797	-0.113814525
244	0xbcd707ae	-0.02624878
245	0x3d39968f	0.0453096
246	0x3d7e2761	0.062049273
247	0xbd9915d8	-0.074748695
248	0x3c13a5e0	0.009011716
249	0x3da02e40	0.078213215
250	0xbc8927c2	-0.01674259
251	0xbdc4b556	-0.096048996
252	0xbdba8bac	-0.091086715
253	0xbda4cb9b	-0.08046647
254	0x3da84981	0.08217145
255	0xbd6d237b	-0.057895165

bias_ih_l0 f4 [128]
0	0xbc26090c	-0.010133993
1	0xbce953ac	-0.02848228
2	0x3b966d38	0.0045906566
3	0xbd18e669	-0.03732911
4	0x3d0e808e	0.034790568
5	0xbc6ff3bd	-0.014645514
6	0x3d1733a6	0.03691449
7	0xbd89375a	-0.067000106
8	0x3ca3acdb	0.019979885
9	0xbc93f4d2	-0.018061075
10	0x3d787dca	0.060666837
11	0xbc399758	-0.011327587
12	0x3d000a91	0.031260077
13	0x3d3cfc02	0.04613877
14	0x3d83fc17	0.06444567
15	0x3cc3fb25	0.023923466
16	0xbc37b386	-0.011212235
17	0xbcb6a9c9	-0.022297757
18	0x3d17502a	0.036941685
19	0x3d24c598	0.040227503
20	0xbd3157f1	-0.043296758
21	0xbba4c205	-0.0050280117
22	0xbce9c722	-0.028537337
23	0xbd39ec01	-0.045391086
24	0xbcc7bdd5	-0.024382511
25	0xbbc35640	-0.0059612095
26	0x3da24e94	0.07925144
27	0xbd613bf1	-0.054988805
28	0xbd91e4fd	-0.07123754
29	0x3d9edfad	0.077575065
30	0xbd0fe2c2	-0.035128362
31	0xbc1162b1	-0.0088736275
32	0x3d2ad282	0.041704662
33	0x3da9b093	0.08285632
34	0xbbfd06b6	-0.0077217473
35	0xbd39c86a	-0.045357145
36	0x3d902e8c	0.07040128
37	0x3da8520f	0.082187764
38	0xbc5d61e5	-0.013512109
39	0x3d4b47f4	0.049629167
40	0xbd2b19ea	-0.04177276
41	0xbcbaf233	-0.022820568
42	0x3ccf5520	0.025309145
43	0xbd4e6cea	-0.050396837
44	0x3d5f7346	0.054553293
45	0x3c66485d	0.014055339
46	0x3d81620a	0.063175276
47	0x3d8b3070	0.06796348
48	0xbd7da20c	-0.061922118
49	0xbd717148	-0.058945924
50	0xbd43d7a2	-0.047813065
51	0x3d6c2b07	0.05765822
52	0xbd40c953	-0.047066998
53	0xbd74dbfe	-0.059780113
54	0xbd967c8f	-0.073479764
55	0x3c933006	0.017967235
56	0x3d4fd11c	0.05073653
57	0x3b86a80f	0.0041093896
58	0x3d047cb1	0.032345477
59	0x3d4d844b	0.050174993
60	0x3d47c873	0.048775148
61	0x3c0dde69	0.008658984
62	0x3d769853	0.06020386
63	0x3d427f5a	0.047484733
64	0xbd6251fa	-0.05525396
65	0xbc39e1d2	-0.011345344
66	0xbdb29aff	-0.087209694
67	0xbc8dba39	-0.017300712
68	0x3cab4e7e	0.020911451
69	0x3d364e27	0.044508126
70	0x3dbda3fe	0.09259795
71	0xbc814218	-0.015778586
72	0x3d3bbb25	0.04583277
73	0x3bb7c8ab	0.0056086383
74	0x3ac9a9c1	0.0015385674
75	0xbda5a97d	-0.08088968
76	0xbce486da	-0.027896333
77	0xbd99329a	-0.074803546
78	0x3cce47b7	0.02518068
79	0x3dc89444	0.097939044
80	0xbcb81901	-0.02247286
81	0xbd9f7b3b	-0.07787176
82	0x3cdd83aa	0.027040321
83	0xbd665199	-0.05623016
84	0xbd34adf5	-0.04411121
85	0xbd76811b	-0.06018172
86	0xbc112eaf	-0.008861228
87	0x3db9b459	0.09067602
88	0xbd712fd6	-0.05888351
89	0xbd0f1087	-0.03492787
90	0x3da3c6d4	0.07996908
91	0x3dbb5bef	0.09148394
92	0xbdbffc2b	-0.09374269
93	0x3d980a4f	0.07423841
94	0x3c4b56b1	0.012410806
95	0x3d8da1fc	0.06915662
96	0xbcee7863	-0.02911014
97	0x3d89ce14	0.067287594
98	0x396094ba	0.0002141771
99	0x3bbe1cdc	0.00580178
100	0x3d3fb53f	0.04680371
101	0x3dadb39c	0.084815234
102	0x3d5afff2	0.053466745
103	0xbd3b93cd	-0.04579525
104	0x3d85200b	0.06500252
105	0x3c307b28	0.01077155
106	0xbdef7ca6	-0.11693697
107	0xbd8b7a98	-0.06810492
108	0x3db03ae1	0.0860498
109	0x3d51b652	0.051199265
110	0xbd661506	-0.056172393
111	0xbd814b41	-0.06313182
112	0xbd338496	-0.043827616
113	0xbdbd48ba	-0.09242387
114	0x3d3ba7a0	0.045814157
115	0xbc66fc41	-0.014098228
116	0xbd592f65	-0.053023715
117	0x3cfb89f3	0.030705428
118	0x3d6f2c2c	0.058391735
119	0x3cee0e03	0.029059416
120	0xbd4e5992	-0.05037839
121	0xbd2c604a	-0.042084016
122	0x3d887ead	0.066647865
123	0xbd3cb847	-0.046074178
124	0x3c9b2931	0.01894054
125	0xbd1610d4	-0.036637142
126	0xbd86815c	-0.06567642
127	0xbdb329a3	-0.08748176

bias_hh_l0 f4 [128]
0	0xbd546d55	-0.05186208
1	0xbcacd752	-0.021098766
2	0x3d00373d	0.03130268
3	0xbd485ff1	-0.04891962
4	0xbdec68b8	-0.11543411
5	0x3d7a220c	0.061067626
6	0xbd814ca5	-0.06313447
7	0x3dc219d9	0.09477586
8	0xbd612c12	-0.05497367
9	0xbbcd1a6f	-0.0062592546
10	0x3dbaede0	0.09127402
11	0xbd322565	-0.043492693
12	0x3d0687a7	0.032844212
13	0xbc027ed9	-0.007964813
14	0x3ce53d9b	0.027983477
15	0xbdbdc13b	-0.092653714
16	0x3c1181cd	0.008881045
17	0x3c95ba50	0.018277317
18	0xbb4f3de6	-0.0031622588
19	0x3d0d6a0f	0.034524973
20	0xbd4cd2c2	-0.05000568
21	0x3d8ad0de	0.067781195
22	0x3cd642f0	0.026154965
23	0x3c6f31f9	0.014599317
24	0x3bef4c63	0.007302807
25	0xbb5abdef	-0.003337737
26	0x3d3a3e6e	0.045469694
27	0x3dad66ba	0.08466859
28	0x3d4d5824	0.050132886
29	0xbd1fcd6b	-0.03901426
30	0x3dc93584	0.098246604
31	0x3d31e2c8	0.043429166
32	0x3cb3efcd	0.021964932
33	0xbcaddd76	-0.021223765
34	0xbcfb8300	-0.030702114
35	0x3d62943e	0.055317156
36	0x3bf9e26d	0.007625869
37	0x3dac536a	0.084143475
38	0x3c531313	0.012882966
39	0xbdee2146	-0.1162744
40	0xbd24ef0d	-0.04026704
41	0xbc78815d	-0.015167561
42	0x3d8ac9b6	0.067767546
43	0xbc51f6d6	-0.012815198
44	0xbb30ec65	-0.002699637
45	0x3d4f1b57	0.050563183
46	0x3c90ed84	0.017691381
47	0x3d929341	0.07156993
48	0x3d4c6291	0.049898688
49	0xbda3e4c3	-0.08002617
50	0xbd2da3d7	-0.042392578
51	0x3d07c243	0.033144247
52	0xbdb6e094	-0.08929554
53	0xbd547db2	-0.051877685
54	0xbd846624	-0.06464794
55	0xbd3743c1	-0.04474235
56	0x3db67ac0	0.089101315
57	0x3d718d62	0.058972724
58	0x3b915652	0.004435339
59	0x3c35180f	0.011053099
60	0x3ccb940c	0.024850868
61	0xbda644ab	-0.08118566
62	0xbcd0339b	-0.025415232
63	0xbace8d32	-0.0015758632
64	0xbd813920	-0.06309724
65	0xbd5d01ef	-0.053956922
66	0xbd403f3b	-0.0469353
67	0x3dba6e9b	0.091031276
68	0x3d471fa2	0.04861415
69	0xbc04515a	-0.008076036
70	0xbd36bd2f	-0.044614013
71	0x3abe7937	0.0014531974
72	0xbd14ac2f	-0.03629702
73	0xbd9a8eeb	-0.07546791
74	0xbcbd738e	-0.02312639
75	0x3da2b751	0.07945121
76	0x3da5ecaf	0.081017844
77	0x3d542579	0.05179355
78	0xbdcd08ec	-0.10011467
79	0x3cc58b9b	0.02411442
80	0x3d5ce886	0.05393269
81	0x3dab39d4	0.08360639
82	0xba24d732	-0.000628817
83	0xbd5dccb7	-0.05415031
84	0xbbee1863	-0.0072660907
85	0xbd6696a9	-0.056296024
86	0xbdc02a89	-0.09383113
87	0xbc8c6858	-0.017139599
88	0xbdb520a9	-0.0884412
89	0xbd05d80a	-0.032676734
90	0xbd00c27d	-0.03143548
91	0x3d6d3d7c	0.057919964
92	0xbd4a840e	-0.049442343
93	0x3cb0841f	0.021547375
94	0xbd2b8d34	-0.04188271
95	0xbd4fdd10	-0.05074793
96	0x3d1bd2ff	0.03804302
97	0x3d19ee58	0.037580818
98	0x3d3ed627	0.04659095
99	0x3c8b3e3e	0.016997453
100	0x3ca25f05	0.0198207
101	0x3e04477f	0.12917899
102	0xbca15c0f	-0.019697217
103	0xbdb6eb79	-0.089316316
104	0x3d809dec	0.06280121
105	0x3d57cded	0.05268662
106	0xbc4c0771	-0.012452946
107	0xbd9dbb7a	-0.07701774
108	0x3d21b4b4	0.039478973
109	0x3bfb2828	0.007664699
110	0x3c2cad96	0.010539433
111	0x3ce24c6c	0.027624331
112	0xbce03b31	-0.027371975
113	0xbcd70cba	-0.026251186
114	0xbcd14d4d	-0.025549555
115	0xbce47ced	-0.0278916
116	0x3d9008f6	0.07032959
117	0x3ce300fb	0.027710428
118	0x3daaf289	0.08347041
119	0x3dc62e1d	0.09676764
120	0x3d5485e1	0.05188549
121	0xbbf866c5	-0.0075806105
122	0xbd6e7b81	-0.05822325
123	0x3cf5657c	0.029955618
124	0xbd0cd087	-0.034378555
125	0xbd616040	-0.05502343
126	0xbd6bcc7b	-0.057568055
127	0xbd8c5475	-0.068520464

weight_ih_l1 f4 [128, 128]
0	0x3b8fea53	0.0043919473
1	0x3d595fb1	0.053069774
2	0x3d79adb3	0.060956668
3	0x3c2856fa	0.010274643
4	0xbcbdd431	-0.02317247
5	0xbd82132a	-0.063513115
6	0xbd16fe50	-0.036863625
7	0x3d031b46	0.03200843
8	0xbd814bde	-0.06313299
9	0xbd987b56	-0.074453995
10	0xbc197509	-0.009366282
11	0x3d8be00e	0.068298444
12	0xbc8d6c6f	-0.01726362
13	0x3cbef6b5	0.023310998
14	0xbd9e7c55	-0.07738558
15	0x3ca37851	0.019954832
16	0x3d0dcc34	0.03461857
17	0x3dbc72bc	0.09201571
18	0x3d9a46ac	0.07533011
19	0x3d2e3606	0.04253199
20	0x3d34ccdb	0.044140678
21	0xbbd930d3	-0.0066281348
22	0x3cfc9041	0.030830504
23	0x3c89b21e	0.016808566
24	0xbda6ae52	-0.08138718
25	0xbd805398	-0.06265944
26	0xbc5e763d	-0.013577995
27	0xbd436a52	-0.047708817
28	0xbcfcd35a	-0.030862499
29	0xbd4596ce	-0.04823952
30	0xbdb8170d	-0.089887716
31	0x3d353f4b	0.044249814
32	0x3d0ebfce	0.034850888
33	0xbda98682	-0.082776085
34	0x3c119e35	0.008887817
35	0x3d8d9565	0.0691326
36	0xbd01be14	-0.031675413
37	0xbc44bf68	-0.012008525
38	0xbbdc0f00	-0.0067156553
39	0xbce41ce1	-0.027845802
40	0x3d10c05b	0.035339694
41	0x3cf10d6a	0.029425342
42	0xbcc2bff1	-0.023773165
43	0xbd89524d	-0.06705151
44	0x3cbafda3	0.022826022
45	0xbd1bf358	-0.038073868
46	0x3d124752	0.035712548
47	0xbc96e21f	-0.01841837
48	0xbdb8dc52	-0.09026398
49	0x3da44b19	0.08022136
50	0xbcce34db	-0.025171688
51	0xbda369f3	-0.079791926
52	0xbd994d30	-0.074854255
53	0x3dd4a4eb	0.10383018
54	0xbdd3bae7	-0.10338383
55	0x3d193aad	0.037409473
56	0x3dae5bfe	0.0851364
57	0x3d15e8a5	0.03659882
58	0xbc073980	-0.008253455
59	0x3dab8a99	0.08376045
60	0xbb3e50fa	-0.0029039965
61	0x3cfe3712	0.031032119
62	0x3d0ec305	0.034853954
63	0x3c0af863	0.008482072
64	0x3d62ec6f	0.055401262
65	0xbd917160	-0.07101703
66	0xbd325403	-0.04353715
67	0xbd9563ae	-0.07294403
68	0x3d13cf26	0.036086224
69	0xbc9f3747	-0.019435538
70	0x3d0d97c0	0.03456855
71	0xbd5958fc	-0.053063378
72	0x3d9dd690	0.0770694
73	0xbcaf1daa	-0.02137645
74	0x3d922059	0.07135076
75	0x3ca0abc5	0.019613156
76	0x3d544964	0.051827803
77	0x3d9fe33f	0.07807016
78	0x3da406b1	0.08009089
79	0x3cab9e5f	0.02094954
80	0xbbd6e3cc	-0.006557917
81	0x3d6e8e99	0.05824146
82	0x3db0c417	0.08631151
83	0x3d507ddb	0.050901275
84	0x3bd1a17e	0.006397425
85	0x3af8b51b	0.0018974872
86	0x3c5ce30f	0.013481869
87	0x3db77842	0.08958484
88	0x3d5219a6	0.05129399
89	0xbd8ef8e4	-0.06981066
90	0xbd4730ed	-0.048630644
91	0x3c8e44d9	0.017366813
92	0x3db3f43b	0.08786818
93	0xbd6b7de5	-0.05749311
94	0xbce713ea	-0.028207738
95	0x3c812893	0.015766418
96	0x3dc38324	0.095464975
97	0xbd4151ad	-0.047197033
98	0xbd9faf5f	-0.07797121
99	0x3b7e31f2	0.0038787094
100	0xbd295b48	-0.04134682
101	0xbdafd160	-0.08584857
102	0xbc3dce5d	-0.011584845
103	0xbabf7337	-0.001460648
104	0x3d564629	0.052313004
105	0x3c1f8ce3	0.00973818
106	0x3d8b712d	0.06808696
107	0x3db7bffe	0.089721665
108	0xbcc5d0dc	-0.024147443
109	0xbc17bf0e	-0.00926186
110	0xbd2a9053	-0.041641545
111	0x3dbe0327	0.09277945
112	0x3c962428	0.018327788
113	0xb93843ad	-0.00017572819
114	0xbd9f6599	-0.0778305
115	0x3d5eab83	0.054362785
116	0x3dc132ae	0.094334945
117	0xbc9bea90	-0.019032747
118	0xbd337bc7	-0.043819215
119	0xbd83ae93	-0.06429782
120	0xbd3b09e7	-0.04566374
121	0xbdab25cc	-0.083568186
122	0x3d9b0f93	0.0757133
123	0xbd15bcb8	-0.03655693
124	0x3d04d263	0.032427203
125	0x3c25a0b9	0.01010912
126	0x3d86cc11	0.06581891
127	0xbcbe3111	-0.023216756
128	0xbc04829f	-0.008087783
129	0x3d8542ee	0.065069064
130	0xbc87258a	-0.016497392
131	0x3e0fe77b	0.14053147
132	0xbd305dff	-0.04305839
133	0xbdb88715	-0.0901014
134	0xbcc84141	-0.024445178
135	0x3c91f36e	0.017816272
136	0xbdaae97e	-0.08345316
137	0x3d6799cd	0.05654316
138	0x3d9091d7	0.07059067
139	0xbd2530fa	-0.04032991
140	0x3c5d0dff	0.013492106
141	0x3d293e53	0.041319203
142	0x3c918251	0.017762335
143	0x3d922d50	0.07137549
144	0x3bbff68a	0.005858247
145	0xbd45811f	-0.048218843
146	0xbdc20288	-0.09473139
147	0xbda096db	-0.078412734
148	0xbd926d2d	-0.0714973
149	0x3b775c3e	0.003774419
150	0x3dd3196d	0.10307584
151	0xbba91e16	-0.005161057
152	0xbc923131	-0.017845722
153	0x3d9a2c50	0.07527983
154	0xbd8235e2	-0.063579336
155	0x3bf5a6f1	0.0074967076
156	0x3ccbebfb	0.024892798
157	0x3d2e6e71	0.042585794
158	0xbda29a0b	-0.079395376
159	0x3c297367	0.0103424555
160	0x3cc80cf0	0.024420232
161	0xba0f64e7	-0.0005470053
162	0x3daa0ba0	0.083029985
163	0x3bd8e472	0.0066190297
164	0xbdb62fcf	-0.088958375
165	0xbdaf826b	-0.08569797
166	0xbbaf85a8	-0.0053565092
167	0x3df385bf	0.118907444
168	0x3d56dd9d	0.05245744
169	0xbe0284b9	-0.12745942
170	0xbd2a17d7	-0.04152664
171	0x3cc31ec4	0.023818381
172	0xbc39d083	-0.011341217
173	0x3ddea4cb	0.108712755
174	0x3dda910c	0.10672197
175	0x3dda114a	0.10647829
176	0xbd779df6	-0.060453378
177	0xbb84c265	-0.004051494
178	0x3dcf4470	0.10120475
179	0x3d872d49	0.06600434
180	0xbddc4379	-0.10755057
181	0xbd11f654	-0.035635307
182	0xbb5d441e	-0.0033762525
183	0x3bd63973	0.00653761
184	0x3dd0c998	0.10194701
185	0x3d6b0009	0.05737308
186	0xbdd90342	-0.105963245
187	0xbd9153aa	-0.07096036
188	0x3e136060	0.14392233
189	0xbd86dc36	-0.06584971
190	0x3d2d5aef	0.04232305
191	0x3da3e6d5	0.08003012
192	0x3de859a6	0.11345224
193	0xbda76899	-0.08174247
194	0x3d6009d1	0.05469686
195	0xbdad1832	-0.084518805
196	0x3da67041	0.081268795
197	0xbcefd2c5	-0.029275307
198	0xbd032245	-0.032015104
199	0x3d2bebb0	0.041972816
200	0xbe004f87	-0.12530337
201	0xbda092f4	-0.07840529
202	0x3d88a3bd	0.066718556
203	0xbd570d55	-0.05250295
204	0xbd74fbb2	-0.059810348
205	0xbd31d243	-0.04341341
206	0x3d87617d	0.06610391
207	0xbe11b4db	-0.14229147
208	0x3cbded1c	0.023184352
209	0x3d8d898c	0.069110006
210	0xbd6fb800	-0.058525085
211	0xbdaf83fc	-0.08570096
212	0xbd0d3560	-0.03447473
213	0x3d3d6533	0.04623909
214	0xbd9fa9a9	-0.07796032
215	0xbd2749ff	-0.040842053
216	0xbd80dd67	-0.06292229
217	0x3d4a9aa6	0.04946389
218	0xbc9289d6	-0.01788799
219	0xbc7ea34a	-0.015541861
220	0xbc264039	-0.010147148
221	0xbd9e34aa	-0.077248886
222	0xbcd5b2a4	-0.026086159
223	0xbc7e5dd4	-0.0155253
224	0x3d7e36f6	0.062064134
225	0xbda3d14b	-0.07998904
226	0xbda72fde	-0.08163427
227	0xbc28500e	-0.010272993
228	0x3d840b01	0.06447411
229	0x3d07d2d6	0.033160053
230	0x3d4b9969	0.04970685
231	0xbd9bdc9d	-0.07610438
232	0xbc0d3b9a	-0.008620167
233	0x3db7741f	0.08957695
234	0xbd2add64	-0.04171504
235	0xbd5271b8	-0.051377982
236	0x3d6bf2d2	0.05760462
237	0x3d91cafa	0.07118793
238	0x3dc87e5d	0.09789727
239	0xbdf03243	-0.11728337
240	0xbdef5486	-0.116860434
241	0xbdfc541c	-0.1232073
242	0xbb5bf9cd	-0.003356564
243	0x3dc686fc	0.09693715
244	0x3d6b4612	0.05743987
245	0x3c7a10b8	0.015262775
246	0x3de34ebf	0.11099004
247	0x3da26c31	0.07930792
248	0x3e0cfd49	0.13768496
249	0xbd85fa6b	-0.06541904
250	0xbdf3509e	-0.11880611
251	0xbe10b3cd	-0.14131089
252	0xbe0baa3e	-0.13639161
253	0x3d3f77c4	0.046745077
254	0x3d5d0672	0.053961225
255	0x3ca93ae7	0.02065797

weight_hh_l1 f4 [128, 128]
0	0xbcda51d0	-0.02665034
1	0x3d9c49ec	0.07631287
2	0xbb3cacf2	-0.0028789607
3	0xbbbff812	-0.0058584297
4	0x3db8229a	0.08990975
5	0xbb632487	-0.0034659223
6	0xbbc41144	-0.0059835035
7	0xbd45677c	-0.048194394
8	0x3d3a0ffd	0.045425404
9	0xbdac79e1	-0.08421684
10	0x3d02b2f8	0.03190896
11	0xbc80ff15	-0.015746633
12	0x3d677b1c	0.05651389
13	0x3c9f62f5	0.019456366
14	0xbd5de4ce	-0.054173283
15	0x3c961ee6	0.01832528
16	0xbd84047b	-0.06446167
17	0xbcb6b472	-0.02230284
18	0x3d1217a0	0.03566706
19	0xbd00566e	-0.031332426
20	0xbcf629e2	-0.030049268
21	0xbc8e7a8c	-0.01739242
22	0xbd5a1b57	-0.05324873
23	0xbc9cfc9b	-0.01916342
24	0xbc09ed9a	-0.008418465
25	0xbbfde15c	-0.007747812
26	0xbcad09bd	-0.021122808
27	0xbd0320da	-0.03201375
28	0x3b803ba2	0.003913359
29	0xbd19a273	-0.03750844
30	0xbd0f54e7	-0.03499308
31	0xba5341fd	-0.0008058844
32	0x3c23839c	0.009980109
33	0x3da9f9bd	0.08299587
34	0xbd02d514	-0.03194149
35	0xbd45b461	-0.048267726
36	0xbdb600e9	-0.08886892
37	0xbd8190a2	-0.06326415
38	0x3c620748	0.013795681
39	0x3dd3f18f	0.10348808
40	0x3aafcaa9	0.0013411838
41	0x3d313a79	0.043268654
42	0x3d59deeb	0.053191107
43	0xbd9a4d8f	-0.075343244
44	0xbd8f2719	-0.06989879
45	0xbd569516	-0.052388273
46	0xbd63df86	-0.05563309
47	0x3dd6d04f	0.104889505
48	0x3b59a678	0.0033210795
49	0xbd014b4e	-0.031565957
50	0xbd677c25	-0.056514878
51	0x3c9dfe24	0.019286223
52	0xbd19eb7c	-0.03757809
53	0xbd86b5f2	-0.06577672
54	0xbd6176f6	-0.05504509
55	0x3d50a365	0.050937075
56	0x3dc537c6	0.096297786
57	0x3c482487	0.01221574
58	0xbd06e532	-0.03293342
59	0xbd5741c9	-0.052552972
60	0xbcec669b	-0.02885752
61	0xbd0855bb	-0.033284884
62	0xbd794c51	-0.060863797
63	0x3c11c3d0	0.008896783
64	0x3d418fa8	0.047256142
65	0x3cb86b59	0.022512125
66	0x3dadc57b	0.08484932
67	0xbd70d45c	-0.05879627
68	0xbd898251	-0.06714309
69	0xbc49896c	-0.01230083
70	0x3da1a7e0	0.07893348
71	0xbd85428b	-0.06506833
72	0xbd2f49c9	-0.042794976
73	0x3af024cd	0.0018321514
74	0xbdfb6789	-0.12275607
75	0xbd4ef38b	-0.05052523
76	0x3d9a9e30	0.07549703
77	0xbbae9725	-0.0053280764
78	0xbd599fce	-0.053130917
79	0x3c16c864	0.00920305
80	0xbc63eb63	-0.013911101
81	0xbd8d3668	-0.06895143
82	0x3d11662f	0.03549784
83	0xbd801eb7	-0.062558584
84	0x3db1f412	0.08689131
85	0xbd2d5fd9	-0.042327736
86	0xbd199865	-0.03749885
87	0xbd78dc79	-0.060757134
88	0xbdc25a62	-0.094898954
89	0x3d3ef6a7	0.046621945
90	0xbdd75183	-0.10513594
91	0xbda567b2	-0.08076419
92	0x3d06b288	0.032885104
93	0xbb818f09	-0.0039538187
94	0x3d35633e	0.044284098
95	0xbcbf336c	-0.02333995
96	0xbda52b3a	-0.080648854
97	0xbbc6e81d	-0.0060701505
98	0xbcaba17d	-0.020951027
99	0x3dc4a8f9	0.096025415
100	0x3c6e49c0	0.014543951
101	0x3d99d737	0.07511752
102	0x3d2e3d4b	0.042538922
103	0xbc8d725f	-0.01726645
104	0xbd8b8655	-0.06812731
105	0x3ccf1d1c	0.025282435
106	0x3cf7ab15	0.030232945
107	0xbc8a5d8a	-0.016890306
108	0x3d890bab	0.066916786
109	0x3d77f856	0.060539566
110	0x3d4fa7ac	0.050697014
111	0xbd890dd0	-0.06692088
112	0xbbacb831	-0.0052709808
113	0x3d561b44	0.052272096
114	0xbc6f1359	-0.014592015
115	0x3d0a1427	0.033710625
116	0xbd8f71de	-0.0700414
117	0xbb1e1b77	-0.0024125257
118	0x3cf52534	0.029924966
119	0x3d207335	0.03917237
120	0xbd42293d	-0.04740261
121	0xbd24bee3	-0.040221106
122	0x3d3adb5f	0.045619365
123	0x3c9b8eef	0.018989054
124	0xbd31b9a9	-0.04338995
125	0xbe0667de	-0.1312556
126	0x3d869ff1	0.06573475
127	0xbce5fb55	-0.028073946
128	0x3da459a0	0.08024907
129	0x3dc0929a	0.09402962
130	0xbdc2c464	-0.09510115
131	0x3d6b3cb0	0.057430923
132	0x3c02f732	0.007993506
133	0x3da1c1a5	0.07898263
134	0x3d23b110	0.03996378
135	0xbd1dcd44	-0.038525835
136	0xbda0b626	-0.07847242
137	0x3db9b412	0.09067549
138	0xbc68b945	-0.014204328
139	0x3d41e883	0.04734088
140	0x3d1e27d5	0.038612206
141	0x3c0321b0	0.008003637
142	0xbd892f16	-0.06698434
143	0xba8caa18	-0.0010731844
144	0xbbac3e39	-0.005256441
145	0x3d25d203	0.040483486
146	0x3c75f167	0.015011168
147	0xbd3caa09	-0.046060596
148	0x3c960b8a	0.01831605
149	0xbd002fbb	-0.03129552
150	0xbcaa4ac3	-0.020787602
151	0xbc181e7d	-0.009284613
152	0x3d91d3ff	0.07120513
153	0x3cd37661	0.025813283
154	0x3dee738e	0.11643134
155	0x3d83889c	0.064225405
156	0x3bff1aec	0.0077851918
157	0x3d96d6af	0.073651664
158	0xbca54cfd	-0.020178312
159	0x3dba9b2a	0.091116264
160	0xbda0d8a5	-0.07853822
161	0x3d96b7a3	0.07359245
162	0x3d2d52da	0.04231534
163	0x3c205101	0.009784938
164	0x3dcf96fa	0.10136218
165	0x3d896e80	0.06710529
166	0x3ded9d02	0.116022125
167	0x3d8ef38b	0.06980046
168	0xbd107581	-0.03526831
169	0x3dd03962	0.10167195
170	0x3d4c1389	0.049823318
171	0xbe0b4c45	-0.13603313
172	0xbceb35a1	-0.028712096
173	0x3d6ec5bf	0.058294054
174	0x3d1f09ac	0.038827583
175	0x3ceecc77	0.02915023
176	0xbca8d8b0	-0.020611137
177	0xbd872ab2	-0.0659994
178	0x3d150667	0.03638306
179	0xbd941a08	-0.072315276
180	0x3c623bac	0.013808172
181	0x3cf09340	0.02936709
182	0x3d930ba0	0.07179952
183	0xbd28f32f	-0.041247543
184	0xbd0232b1	-0.031786624
185	0xbbf6d6f9	-0.007532951
186	0x3d512d49	0.051068578
187	0xbcd2976f	-0.025706975
188	0xbdb5201c	-0.08844015
189	0x3d117dd9	0.03552041
190	0x3d14901b	0.036270242
191	0xbc956b96	-0.018239778
192	0x3d904dd2	0.07046093
193	0x3c956a84	0.018239267
194	0x3d698c0f	0.057018336
195	0x3dc10b95	0.09426037
196	0xbd605e30	-0.054777324
197	0xbd754311	-0.059878413
198	0xbdabfba2	-0.083976045
199	0xbd8373c8	-0.06418568
200	0x3db97930	0.09056318
201	0x3dcf3ccc	0.10119018
202	0x3d8e3cf0	0.06945217
203	0x3d93a07d	0.07208345
204	0xbdf05c88	-0.11736399
205	0xbcb79041	-0.022407653
206	0xbd090035	-0.033447463
207	0xbdd8739e	-0.10568927
208	0x3d5e75e2	0.05431164
209	0x3d90d67b	0.07072159
210	0xbdbace5f	-0.091213934
211	0x3da07abc	0.0783591
212	0xbc3867ce	-0.011255218
213	0xbd444018	-0.047912687
214	0x3c05c96e	0.0081657
215	0x3cc4d442	0.024026994
216	0xbd5b33e5	-0.053516287
217	0x3d6a675a	0.05722747
218	0xbd990529	-0.07471687
219	0xbc19ab45	-0.009379213
220	0xbd8dc113	-0.069215916
221	0x3b921e75	0.004459197
222	0x3cf8e510	0.030382663
223	0xbdd5cd22	-0.104395166
224	0xbd7c0cdb	-0.061535697
225	0x3d1d50e1	0.03840721
226	0xbdc8a01c	-0.097961634
227	0x3cfc57d6	0.030803602
228	0x3d0e0a34	0.0346777
229	0x3d3fece4	0.046856776
230	0x3d72b755	0.05925687
231	0xbd8c9404	-0.06864169
232	0x3d1366b5	0.03598662
233	0x3c830de9	0.015997844
234	0x3b966131	0.004589223
235	0xbc45027d	-0.012024519
236	0x3de36930	0.11104047
237	0xbd619a70	-0.055078924
238	0x3d3c3877	0.045952287
239	0x3ce71735	0.028209308
240	0xbc8ae6b6	-0.016955715
241	0x3d72cb76	0.059276067
242	0x3bc92881	0.0061388616
243	0xbdac7f32	-0.08422698
244	0x3d56e180	0.052461147
245	0xbd0e6251	-0.03476173
246	0xbd1a516f	-0.037675317
247	0x3dccb5f0	0.09995639
248	0x3c0b08a3	0.008485946
249	0x3d983746	0.074324176
250	0x3d35f3e6	0.044422053
251	0x3cd90204	0.026490219
252	0xbd26cff6	-0.04072567
253	0xbc874ec2	-0.016517047
254	0x3e13abd9	0.14421023
255	0x3c89fceb	0.016844233

bias_ih_l1 f4 [128]
0	0x3db30124	0.08740452
1	0x3dd58509	0.10425765
2	0x3c8721e1	0.016495647
3	0xbd8cfbb7	-0.06883948
4	0x3d6d18d4	0.057885006
5	0xbd8f3fca	-0.06994589
6	0x3d2d55eb	0.042318266
7	0x3c4fe62f	0.012689157
8	0xbd4761b9	-0.04867718
9	0x3cf3f2ba	0.029778827
10	0xbce91ed6	-0.028457087
11	0x3d5f7fa1	0.054565076
12	0x3c45cf65	0.0120733725
13	0x3ccf5c4a	0.025312562
14	0xbdba18a5	-0.09086732
15	0x3d5857cd	0.05281811
16	0x3cc1cf89	0.02365853
17	0xbca0348c	-0.019556306
18	0x3cd0b431	0.025476547
19	0xbdaee940	-0.08540583
20	0x3c103cd5	0.008803566
21	0xbc029a3d	-0.007971344
22	0x3cfa2b81	0.030538322
23	0xbd76e27b	-0.060274582
24	0x3ce0336a	0.027368266
25	0x3aec3cc2	0.0018023478
26	0xbda2afd1	-0.079436906
27	0x3cb51fd9	0.022109913
28	0xbcbfe3a5	-0.023423979
29	0xbd5571a3	-0.052110326
30	0x3da9553f	0.082682125
31	0xbdcb0762	-0.099135175
32	0x3dd423a9	0.10358364
33	0xbdb85145	-0.08999876
34	0xbc9dfed9	-0.01928656
35	0x3c6b32dd	0.0143553885
36	0x3c42c071	0.011886702
37	0x3c9cd68e	0.019145276
38	0x3d975fcc	0.07391319
39	0x3d94a29e	0.07257579
40	0x3ce4ec31	0.027944656
41	0xbcee7b24	-0.029111452
42	0x3de8ac09	0.11360938
43	0x3d8ddc09	0.06926734
44	0xbd065a5e	-0.032801025
45	0xbcfea934	-0.031086542
46	0xbd246b0a	-0.040141143
47	0xbdca434b	-0.09876116
48	0x3dc38a34	0.095478445
49	0x3d992d3b	0.0747933
50	0x3d59d788	0.053184062
51	0xbc97c00b	-0.01852419
52	0x3d3d5453	0.046222996
53	0xbce8fb85	-0.028440246
54	0x3d8e2d3b	0.06942221
55	0xbdb66dd8	-0.0890767
56	0x3c3c7663	0.011502835
57	0xbdbaa698	-0.091138065
58	0x3d49bcae	0.049252205
59	0x3dda46d2	0.10658039
60	0xbce02635	-0.027361969
61	0x3cdf91b5	0.027291158
62	0x3d040a9c	0.03223668
63	0xbd1e4f6d	-0.038649965
64	0xbd06fdc4	-0.032956854
65	0xbc1416b9	-0.009038621
66	0x3c1bf345	0.009518449
67	0xbd205794	-0.03914602
68	0x3c1d39d0	0.009596303
69	0x3c8c3ec8	0.01711978
70	0x3c8cee67	0.017203523
71	0x3c2d642a	0.010582963
72	0x3bf3ae63	0.00743656
73	0x3ce5637e	0.028001543
74	0x3d3ef328	0.04661861
75	0xbcd9b100	-0.026573658
76	0xbda9e5fd	-0.0829582
77	0x3c7f066e	0.015565498
78	0xbc80caa2	-0.015721623
79	0x3c72b48c	0.014813554
80	0x3d9d2941	0.07673884
81	0x3dc12e1a	0.09432621
82	0x3df95bf3	0.12175741
83	0x3d0f1cb0	0.034939468
84	0x3d4402e9	0.047854338
85	0x3dbc82b2	0.09204616
86	0x3b2e9d02	0.0026643877
87	0xbccb6200	-0.024827003
88	0xbdaebab2	-0.08531703
89	0xbcc1952f	-0.023630707
90	0x3cd853fb	0.026407233
91	0x3d460ed8	0.048354
92	0xbd097ab0	-0.03356427
93	0xbd208ce1	-0.039196853
94	0xbb343f6e	-0.0027503627
95	0x3ba11726	0.0049160896
96	0xbd9be6b5	-0.07612363
97	0x3d2d533a	0.0423157
98	0x3df090ec	0.11746392
99	0x3c90132d	0.017587269
100	0xbd84810e	-0.06469928
101	0x3cee183a	0.029064287
102	0x3c1e6b67	0.009669161
103	0x3d8ad7ae	0.06779419
104	0xbddc0afb	-0.10744282
105	0xbc6ae522	-0.014336856
106	0xbbbca647	-0.0057571265
107	0xbd06b5c8	-0.032888204
108	0x3d81ef16	0.0634443
109	0xbd737a03	-0.05944253
110	0xba0708bd	-0.00051511434
111	0xbd41836e	-0.04724448
112	0xbcaf054f	-0.021364836
113	0x3d4004ab	0.04687945
114	0x3d717522	0.058949597
115	0x3def8748	0.11695725
116	0x3ba0dcd6	0.004909138
117	0x3d4b077c	0.049567685
118	0xbd6fd917	-0.058556642
119	0x3c8f1777	0.017467244
120	0x3d8762f9	0.066106744
121	0x3bd67030	0.0065441355
122	0xbc3bd529	-0.011464396
123	0x3c734fa0	0.014850527
124	0xbd7d5910	-0.061852515
125	0x3d909715	0.070600666
126	0x3da8b307	0.08237272
127	0x3d2a6bfb	0.041606884

bias_hh_l1 f4 [128]
0	0xba3cb249	-0.00071981974
1	0x3b198dc4	0.0023430446
2	0x3e069b3c	0.13145155
3	0xbd703bf8	-0.05865094
4	0x3dbca0f8	0.0921039
5	0x3d020605	0.031744022
6	0xbcdf5771	-0.027263375
7	0x3d59a188	0.053132564
8	0xbd218aa3	-0.039438855
9	0x3d9cfc78	0.07665342
10	0x3d98e234	0.0746502
11	0x3c4927ac	0.012277525
12	0xbd32ef53	-0.04368527
13	0xbd91cc99	-0.07119102
14	0xbdae113a	-0.084993795
15	0x3d8a0cda	0.067407325
16	0xbb428ccc	-0.0029685972
17	0x3ca62e0e	0.020285632
18	0xbd06591a	-0.032799818
19	0xbd42b85c	-0.0475391
20	0x3d0efffa	0.034912087
21	0xbcc22243	-0.023697978
22	0x3d786e80	0.060652256
23	0xbd0515e2	-0.032491572
24	0xbd52b639	-0.051443312
25	0xbc958020	-0.018249571
26	0xbd3f4bd1	-0.046703164
27	0xbdf0157e	-0.11722849
28	0xb9b6d89d	-0.00034875135
29	0x3bc1a730	0.005909823
30	0x3dac61fd	0.08417127
31	0xbdbb32df	-0.09140562
32	0x3c2a9885	0.01041234
33	0x3cbab52c	0.022791468
34	0x3db203fe	0.08692168
35	0x3d91bdc0	0.0711627
36	0xbd85415b	-0.06506606
37	0xbdba61a3	-0.09100654
38	0x3c946985	0.018116722
39	0xbd29b855	-0.04143556
40	0x3d9f58a1	0.077805765
41	0x3dbb2e3a	0.091396764
42	0x3d40748f	0.04698616
43	0x3dae593a	0.08513112
44	0x3d99368d	0.07481108
45	0xbda17dcf	-0.07885324
46	0xbd8d2f76	-0.06893818
47	0xbc521700	-0.012822866
48	0x3a5bc29d	0.00083831867
49	0xbd4fe768	-0.050757796
50	0xbd5a46f1	-0.05329031
51	0x3d32981b	0.04360209
52	0xbc02a6eb	-0.007974367
53	0xbdb2eb66	-0.08736305
54	0x3dc1e2b5	0.09467069
55	0xbd83b9d3	-0.064319275
56	0xbd84ea8f	-0.06490051
57	0xbd83cf74	-0.06436053
58	0xbdb7e349	-0.08978898
59	0x3da125bb	0.07868525
60	0x3ceda368	0.029008582
61	0x3d54b20b	0.051927608
62	0x3dcc6f79	0.09982199
63	0xbdc203b9	-0.09473366
64	0xbcf5a184	-0.029984243
65	0xbcb4795b	-0.022030523
66	0xbd1a3b87	-0.037654426
67	0x3d6b5a4e	0.057459168
68	0x3db47935	0.08812181
69	0xbd5852e6	-0.052813433
70	0xbd77bcd7	-0.060482826
71	0xbd9a69cd	-0.07539711
72	0xba3c16fe	-0.0007175057
73	0x3d243bbc	0.04009603
74	0xbd8a933d	-0.06766365
75	0xbc699432	-0.014256524
76	0xbdd869a5	-0.10567025
77	0xbdc9ac0b	-0.09847268
78	0xbde6f86e	-0.11277853
79	0x3cbc03be	0.022951003
80	0xbd881fe3	-0.06646707
81	0xbb6eb7af	-0.0036425402
82	0x3c0cf8ec	0.0086042695
83	0xbdc97965	-0.09837607
84	0xbdd05509	-0.10172469
85	0x3de38c9b	0.11110803
86	0xbd41093c	-0.047127947
87	0xbc3e9fe5	-0.0116348015
88	0xbc1a5478	-0.009419553
89	0xb9fed3e9	-0.0004860454
90	0x3ceb65c8	0.028735057
91	0xbd84a3fb	-0.06476589
92	0x3dbc1460	0.09183574
93	0x3dab6901	0.08369637
94	0xbd1b6e22	-0.037946828
95	0xbd6596ec	-0.056052133
96	0xbd492965	-0.049111743
97	0x3cfd6ed8	0.030936643
98	0x3daafa4d	0.08348522
99	0xbdb897b5	-0.09013311
100	0x3d38cb1b	0.04511557
101	0x3dec898c	0.115496725
102	0xbcca6459	-0.024706053
103	0xbc8fdca3	-0.017561262
104	0x3cd5f24c	0.026116513
105	0x3dcd82f4	0.10034743
106	0xbdd5454e	-0.104136094
107	0xbd9df972	-0.077135935
108	0x3d8192e2	0.06326844
109	0x3c7c6f2c	0.015407365
110	0x3d0aa6ec	0.033850595
111	0xbcfbde53	-0.03074566
112	0xbd3c1fb7	-0.045928683
113	0xbceb89e8	-0.028752282
114	0xbbb655a8	-0.0055644102
115	0x3d96c311	0.07361425
116	0x3d9923b7	0.07477515
117	0x3da5c52b	0.080942474
118	0xbdad3f69	-0.0845936
119	0xbd2995aa	-0.041402496
120	0xbd0bb9e4	-0.034112826
121	0xbd998c90	-0.07497513
122	0xbd32bb2b	-0.04363553
123	0x3dcbc3f1	0.09949482
124	0xbd766d77	-0.060162988
125	0xbd2f57ea	-0.04280845
126	0x3d07fb29	0.03319851
127	0xbc527942	-0.012846293

weight_ih_l2 f4 [128, 128]
0	0x3d65e37e	0.056125157
1	0xbd9df702	-0.077131286
2	0xbd45c3ce	-0.048282437
3	0x3da5e496	0.0810024
4	0x3db9ebcc	0.09078178
5	0xbd8e6d98	-0.06954497
6	0xbd8b3cf1	-0.06798733
7	0x3d7fe252	0.062471695
8	0xbc85f670	-0.016352862
9	0x3da14d16	0.07876031
10	0xbcb19713	-0.021678483
11	0x3d98fb8f	0.07469856
12	0x3cba6f24	0.022758074
13	0x3d700263	0.058596026
14	0x3db3cdfa	0.08779521
15	0x3b6737d3	0.0035281077
16	0xbde70ef0	-0.11282146
17	0x3ddb4437	0.1070637
18	0x3b111259	0.002213618
19	0x3d734ee0	0.059401393
20	0xbcfadcd6	-0.03062288
21	0x3d3d6200	0.04623604
22	0xbc9c4d28	-0.01907976
23	0xbc2a1184	-0.010380153
24	0xbd630703	-0.05542661
25	0xbdba6ef9	-0.091031976
26	0x3da9c50f	0.08289539
27	0xbc129756	-0.008947214
28	0xbd1dc972	-0.03852219
29	0x3d1729b3	0.036905
30	0x3bcafcbb	0.0061946786
31	0x3d6378a1	0.055534963
32	0x3d124c80	0.035717487
33	0x3cdba4fa	0.026812065
34	0xbccd986d	-0.025097096
35	0x3e12d499	0.14338912
36	0x3b74e918	0.003737038
37	0x3d78661d	0.060644258
38	0xbd36492c	-0.044503376
39	0xbd0b1b3e	-0.033961527
40	0xbc8f26e4	-0.0174746
41	0xbe07d5bb	-0.13265125
42	0x3d0ecf2f	0.034865554
43	0xbdd90e72	-0.10598458
44	0x3c83c729	0.016086178
45	0xbd8af15e	-0.067843184
46	0xbda389e9	-0.07985289
47	0xbdbd4dea	-0.092433766
48	0x3c9ecf6c	0.019386016
49	0x3c1c7262	0.009548755
50	0x3d9b02c1	0.07568885
51	0x3d7fbab1	0.062433902
52	0xbdd59373	-0.10428514
53	0xbde7f24b	-0.113255106
54	0x3dd82e78	0.10555738
55	0x3d9b712d	0.07589946
56	0x3d338185	0.04382469
57	0xbda71975	-0.081591524
58	0x3ca67be5	0.02032275
59	0x3dbecb52	0.09316124
60	0x3d3c70ea	0.04600612
61	0x3dc1d2ea	0.09464057
62	0x3ccae89b	0.024769118
63	0xbd9da602	-0.07697679
64	0x3db02ccd	0.08602295
65	0xbda7e493	-0.08197894
66	0xba9c88e4	-0.0011942652
67	0xbdf5dc65	-0.120049275
68	0xbca22f31	-0.019797893
69	0xbd95a03e	-0.073059544
70	0xbd127e04	-0.03576471
71	0x3dcef85c	0.101059645
72	0x3dc532f4	0.09628859
73	0xbcd09310	-0.02546075
74	0x3db69ef9	0.089170404
75	0xbd26ee61	-0.04075468
76	0xbddde22b	-0.10834154
77	0xbc8b5c25	-0.017011711
78	0xbd151d54	-0.036404923
79	0x3ca266d1	0.019824417
80	0xbca04be4	-0.019567437
81	0x3de10dd1	0.109889634
82	0xbcebff1f	-0.028808175
83	0xbbe1d0da	-0.006891352
84	0xbcc9b8a4	-0.024624176
85	0x3bc47ada	0.0059960904
86	0x3d4fa3ca	0.05069331
87	0xbdaecab9	-0.0853476
88	0xbdb04650	-0.08607161
89	0xbd8d7fda	-0.069091514
90	0x3d8d365f	0.06895136
91	0x3e05e88b	0.1307699
92	0x3d63fa3c	0.055658564
93	0x3c8df214	0.017327346
94	0x3d0f397c	0.03496693
95	0xbd172c37	-0.0369074
96	0x3d296881	0.04135943
97	0x3d6037d7	0.054740753
98	0xbd2054fa	-0.03914354
99	0xbbaf7f2b	-0.005355736
100	0xbd9fad31	-0.077967055
101	0x3db07ad5	0.08617178
102	0x3dfa2ecd	0.12215958
103	0x3da6f879	0.08152861
104	0xbd6f6381	-0.058444504
105	0xbca376d8	-0.01995413
106	0x3d4edb77	0.050502267
107	0x3b8f0f09	0.004365806
108	0xbced9bd5	-0.02900497
109	0x3d5b06d0	0.053473294
110	0x3c01fa7b	0.007933254
111	0xbca6cb3f	-0.020360587
112	0xbd2f3d27	-0.04278293
113	0xbd8655f6	-0.065593645
114	0x3d9633cb	0.073340975
115	0xbda127bc	-0.07868907
116	0xbd85269c	-0.06501505
117	0x3d7ecc1b	0.06220637
118	0x3d883a9f	0.06651806
119	0xbcf353b7	-0.029703004
120	0x3acec587	0.001577542
121	0x3ce55962	0.027996723
122	0xb72299a3	-9.691724e-06
123	0xbd562532	-0.052281566
124	0xba5472fa	-0.0008104291
125	0xbb08f004	-0.0020895014
126	0x3e0ad82c	0.13559026
127	0x3d783504	0.060597435
128	0xbd4cbb8d	-0.04998355
129	0x3d73ef6f	0.059554514
130	0xbb942400	-0.004520893
131	0x3d997d83	0.074946426
132	0x3c741035	0.014896442
133	0x3bff0232	0.007782244
134	0x3c433502	0.0119144935
135	0xbc45e3f8	-0.012078278
136	0x3ccc9f33	0.024978256
137	0x3c87c36b	0.016572675
138	0xbd4a3e36	-0.049375735
139	0xbd75ae28	-0.05998054
140	0xbd515591	-0.051106993
141	0xbcb87b47	-0.02251972
142	0xbd3cc59c	-0.046086892
143	0xbd75fa1a	-0.06005297
144	0x3d8aefd9	0.067840286
145	0x3dc919e2	0.0981939
146	0xbd1e262d	-0.038610626
147	0xb9f36c53	-0.0004642928
148	0x3dc4bbab	0.09606107
149	0xbc5cf838	-0.013486914
150	0x3dbfc46f	0.093636386
151	0xbd11bdd4	-0.035581425
152	0xbcf79f59	-0.03022735
153	0x3d912ecc	0.07089004
154	0x3c22fe54	0.009948332
155	0x3ddd352f	0.108011596
156	0xbc56c995	-0.013109584
157	0xbd8e12b6	-0.069371626
158	0x3ce2a8a1	0.0276683
159	0xbcdc6af3	-0.026906466
160	0x3b06383e	0.00204803
161	0x3bdd8ee0	0.006761417
162	0x3d241e02	0.04006768
163	0x3c916c93	0.017751968
164	0xbdbdb8c0	-0.09263754
165	0xbd3f9e13	-0.04678161
166	0x3bdb416a	0.0066911476
167	0xbd55ef4f	-0.052230176
168	0xbb9a4bad	-0.0047087283
169	0x3d6d7cf6	0.0579805
170	0xbda86c9f	-0.08223843
171	0x3d35d147	0.044389036
172	0x3d279b53	0.040919613
173	0xbc92974c	-0.01789441
174	0x3b2d7ffe	0.0026473994
175	0x3d171dbd	0.036893595
176	0x3e06ba43	0.1315699
177	0x3d3f603b	0.046722632
178	0xbbc295f6	-0.005938287
179	0xbd88ad1c	-0.06673643
180	0x3d901fba	0.07037301
181	0x3d4f43f2	0.050601907
182	0x3daca77d	0.08430383
183	0xbd761fc6	-0.060088895
184	0xbd8ba1f1	-0.06817997
185	0x3c917b9b	0.017759135
186	0x3d1f04f8	0.038823098
187	0x3cc4c86f	0.024021355
188	0x3c896df7	0.016776068
189	0x3dbf1979	0.093310304
190	0x3c29edfe	0.010371683
191	0xbd93787c	-0.07200715
192	0xbc26564f	-0.0101524135
193	0x3cd4d506	0.025980484
194	0xbdc1c9bb	-0.09462305
195	0x3dc82f9b	0.09774705
196	0xbd987828	-0.07444793
197	0x3b58d42b	0.0033085446
198	0x3c8438f8	0.016140446
199	0xbdd36265	-0.10321502
200	0xbdb1eef1	-0.086881526
201	0xbc3775a4	-0.011197481
202	0x3d362250	0.044466317
203	0xbdc6bbde	-0.097038016
204	0xbddb715c	-0.10714981
205	0xbdb87410	-0.09006512
206	0xbd5b6490	-0.0535627
207	0xbd966137	-0.07342761
208	0x3d13de9b	0.036100965
209	0xbcf5359f	-0.029932795
210	0x3d407036	0.046982013
211	0x3d699c64	0.05703391
212	0x3aa0014d	0.0012207419
213	0x3d8b4b31	0.06801451
214	0xbd0ea651	-0.03482658
215	0x3ceccea2	0.028907124
216	0x3da79e8e	0.08184539
217	0xbd5171a6	-0.051133774
218	0x3d014b74	0.0315661
219	0x3d8fd3a9	0.07022793
220	0xbd367e10	-0.044553816
221	0xbc9480ac	-0.018127762
222	0xbdefb851	-0.117050774
223	0x3bed339a	0.0072388174
224	0xbd8a067d	-0.06739519
225	0xbcbb3b42	-0.022855405
226	0xbd85db04	-0.065359145
227	0xbcd093bd	-0.025461072
228	0x3cd1d426	0.025613856
229	0x3db0c506	0.08631329
230	0x3d797356	0.06090101
231	0xbd91e9f1	-0.07124699
232	0xbd6e605b	-0.05819736
233	0x3db38e49	0.08767373
234	0xbd899639	-0.06718106
235	0xbd6a0a5f	-0.057138797
236	0x3de1b36a	0.11020549
237	0xbd858a3a	-0.06520505
238	0x3da491b8	0.08035606
239	0x3d00d74b	0.03145532
240	0x39e19759	0.00043028107
241	0x3d8da529	0.069162674
242	0x3d71114c	0.058854386
243	0x3d408862	0.047005065
244	0xbd7e7019	-0.062118623
245	0x3bc2162b	0.005923053
246	0xbd006ed8	-0.03135571
247	0xbdb05bd3	-0.08611264
248	0x3b925fa6	0.0044669686
249	0xbdaee8d0	-0.08540499
250	0x3d169fe5	0.03677358
251	0xbda5cfbc	-0.08096263
252	0xbd7db49c	-0.06193982
253	0xbd6914d2	-0.05690462
254	0x3bd6ea9d	0.00655873
255	0xbcb5bf9c	-0.022186093
